app/src/main/ml/model_v4.tflite (tflite, 47020 bytes, 8 tensors)

arith.constant f4 [5, 32]
000000 03 fa 38 be f5 42 3a be 74 2a 76 be 42 9c 19 3e
       -0.18064122 -0.18189605 -0.24039632 0.15001014
000010 95 67 40 3e 34 12 e4 be 7d b6 4c be 50 fb de bd
       0.18789513 -0.44545138 -0.19991489 -0.10887778
000020 f0 04 9a be e2 ec 4d be 35 a1 5c be 19 86 4e 3e
       -0.30081892 -0.20109895 -0.2154587 0.20168342
000030 40 e5 d5 bc 3c 91 a8 be f5 07 3b 3e 55 87 94 be
       -0.026110291 -0.32923305 0.18264754 -0.290095
000040 1e b4 c0 3d bd 58 48 be 26 ce 1b be e7 dc 3f be
       0.094093546 -0.19565101 -0.15215358 -0.18736611
000050 0b b3 92 3e 44 ee bf 3d 10 4b a8 be b9 87 3f 3d
       0.28652224 0.093716174 -0.32869768 0.046760295
000060 21 6e 23 be 35 91 21 3d 7d fb 50 be fa ae 68 3d
       -0.1595998 0.03944512 -0.20408435 0.056807496
000070 ee 8f 30 3e 7b 3f fb 3d 9e 63 9d be 90 f4 b5 3e
       0.17242405 0.12267967 -0.30740064 0.3553815
000080 52 64 03 3d b1 c6 d9 3d da 70 98 bd 19 97 5d be
       0.032078095 0.106336005 -0.074434 -0.2163967
000090 98 15 99 3b 92 a2 8b 3d 54 47 4c be 35 11 26 3c
       0.0046717636 0.06818117 -0.19949085 0.010135938
0000a0 e3 e8 64 3e d9 15 6c 3e d9 88 90 bc 92 d6 9b be
       0.22354464 0.23055209 -0.017643379 -0.30437142
0000b0 cf 51 ce 3e 1d b9 cf be 12 de 93 be d4 ab c2 3e
       0.4029679 -0.40570918 -0.28880364 0.3802172
0000c0 2c d3 54 3e 7e a1 8b 3e 27 07 ad 3e 3f 88 32 be
       0.2078368 0.27271646 0.3379452 -0.17434786
0000d0 82 14 ca be a7 5d c0 be 57 09 8f be e3 9c 22 bf
       -0.3946877 -0.3757145 -0.27936813 -0.6352064
0000e0 03 be e7 be b5 be 9b be 36 bf b8 bd 11 a3 8a bd
       -0.45262155 -0.30418935 -0.090208456 -0.06769384
0000f0 e5 96 49 3d 9a 5e a6 3e 4b 19 91 be 67 0d d1 be
       0.04921617 0.3249405 -0.2833961 -0.40830538
000100 dc 38 bf be 6f 75 08 be 59 a5 c9 bd cc 38 a1 3e
       -0.37348068 -0.13326047 -0.09845991 0.31488645
000110 0d d4 13 be 86 d2 97 3e 23 65 f0 bd 02 35 68 be
       -0.1443636 0.29652804 -0.1173804 -0.22676471
000120 22 0e 10 3d 4d 3c e6 be 82 24 4f 3e e5 d4 fa be
       0.035169728 -0.4496788 0.2022877 -0.4899055
000130 9c 34 e1 be b0 9f 3b 3e b0 c1 0e bf 0d 57 20 3e
       -0.4398545 0.18322635 -0.55764294 0.15658207
000140 f2 a6 a5 3e 3f f2 96 be 47 14 31 3e 51 77 09 3e
       0.32353932 -0.29481694 0.17292891 0.13424422
000150 a0 4d a4 3e 76 bd e0 3e c6 7c d8 be 69 53 7c be
       0.32090473 0.43894547 -0.42282695 -0.24641193
000160 a1 96 fe bd e1 87 0f 3d 41 59 9d 3e c1 24 a0 bd
       -0.12431074 0.035041694 0.30732158 -0.0781951
000170 49 9a 66 3d 36 3d 41 3e 60 a6 ef be e8 e0 24 3d
       0.05629948 0.18871006 -0.46806622 0.04025355
000180 84 60 2a 3e c7 2d 3a bd f8 64 93 be 9c d5 ba bd
       0.1663838 -0.045453813 -0.2878797 -0.09122774
000190 5d b8 91 bd ac 46 b5 be 93 cc fd 3b 25 d7 61 3d
       -0.07115243 -0.3540548 0.0077453344 0.05513682
0001a0 30 36 2c be 10 e8 98 be 90 eb 87 be 95 94 46 3e
       -0.16817546 -0.2986455 -0.26546907 0.19392617
0001b0 04 7c e1 bd 78 b7 63 3e ed e2 92 3e 33 77 f5 3d
       -0.11009982 0.22237957 0.28688756 0.11985626
0001c0 47 40 87 be 79 42 ac bc b8 ec ba be a7 13 0d be
       -0.26416227 -0.02102779 -0.36508727 -0.13777028
0001d0 fa f2 42 bd d0 9a ac be f4 e9 be 3d 62 88 89 be
       -0.047595 -0.33711863 0.09321967 -0.26861864
0001e0 9a e7 2f 3e 49 08 3b be cc 59 5d 3c d5 0f c5 3d
       0.17178193 -0.1826488 0.013510179 0.0962216
0001f0 ac 1e e3 3d 0b a6 a8 bd 54 3d 8e be fe df 94 3e
       0.110898346 -0.08234795 -0.27781165 0.29077142
000200 f5 52 1c be ae 6d 0d bd 2c 8a 59 3d 77 d1 61 be
       -0.1526602 -0.034528427 0.053110287 -0.22052561
000210 c1 1d 3d be 23 6f 8a be aa a0 c2 be 7a 88 eb 3e
       -0.18468381 -0.27037916 -0.38013202 0.4600256
000220 de 6c 9d be 50 96 c6 3d 25 f3 1d bd 91 c2 43 3d
       -0.30747122 0.096966386 -0.03856196 0.047792975
000230 ad fc 13 be 61 84 90 be d0 4d a4 be 91 e8 f3 bd
       -0.14451857 -0.28225997 -0.32090616 -0.11909593
000240 13 82 84 3d 1c eb 47 be d5 14 91 3d e3 1f cf 3e
       0.06470122 -0.19523281 0.070840515 0.40454015
000250 5c 7d b6 bd 91 fd 3b be 0a f1 09 3c 49 01 e0 bd
       -0.08910629 -0.18358447 0.008419285 -0.10937745
000260 60 5a c0 3c 48 1d 02 bf 53 f8 3d be 28 a6 14 3d
       0.023480594 -0.5082593 -0.1855176 0.03629127
000270 a7 c9 8d bd 27 e3 bd 3e 6e 86 19 bc 9f 04 c5 be
       -0.06923228 0.37087366 -0.009370429 -0.38480088

arith.constant1 f4 [32, 64]
000000 dc 98 c7 3d 7a bb 77 bd 58 6d 7c be 25 f1 6e 3d
       0.097459525 -0.060481526 -0.24651086 0.058335442
000010 f9 59 28 bc f7 e5 da bd d9 38 94 bd e7 bf a1 3d
       -0.010275357 -0.106883936 -0.07237405 0.078979306
000020 28 3b 81 be ff 4d a8 3d 0b c9 19 be 64 06 ff 3d
       -0.25240445 0.082180016 -0.15018098 0.12452391
000030 d0 54 41 be bf ef 45 be 23 25 d6 3c 16 99 38 be
       -0.1888001 -0.19329737 0.026140755 -0.18027148
000040 e7 bf ff 3d fc c9 18 be 90 63 ed 3d 2e 4c f0 3d
       0.12487774 -0.14920801 0.11591256 0.1173328
000050 43 98 cd 3d da e4 5a be 12 20 d9 bd 95 25 c2 3d
       0.10038807 -0.21376362 -0.1060182 0.094798245
000060 f3 c3 f6 bd af e2 43 3d ed db 19 be 7f 52 dc 3d
       -0.12049093 0.047823604 -0.15025301 0.107579224
000070 56 3e fa bd 1e 08 6c 3d 00 74 64 bd c0 5e f2 3c
       -0.12218921 0.05762493 -0.05577469 0.029586196
000080 aa 51 c6 bd 75 37 00 3e 61 ca 39 be 81 e0 7b bd
       -0.09683545 0.12521155 -0.18143608 -0.0614934
000090 d9 64 8d be a9 68 53 3d ab a5 d0 3d 28 e4 79 3e
       -0.27616003 0.051613484 0.10187849 0.24403441
0000a0 9b 16 8a 3c 5d 61 99 3d c0 87 47 bd b3 cb cd 3d
       0.016856482 0.07489274 -0.048713446 0.10048618
0000b0 1a 82 6a bd 2c 4d 96 bd e1 3e c2 3d ab a3 07 3d
       -0.05725298 -0.07338938 0.094846494 0.03311507
0000c0 28 e3 32 be 1f 5d 39 bd ae 98 b5 3d 6f 05 c6 3b
       -0.17469466 -0.045254823 0.08867012 0.006043128
0000d0 56 21 39 be 10 8d 80 3b e0 ec dc 3d 10 d1 ff 3d
       -0.18079123 0.003923066 0.10787368 0.124910474
0000e0 23 48 30 be 25 45 72 be 8c ad 33 3e f3 e7 c7 3d
       -0.17215018 -0.23659189 0.17546672 0.09761038
0000f0 76 c8 84 be ab 5c 63 3e 88 b6 60 be 9e ea a7 3d
       -0.2593419 0.22203319 -0.2194463 0.081990466
000100 f7 b1 eb bc e0 91 8b be af fc 14 bd e2 db 4a be
       -0.028771384 -0.2725973 -0.03637379 -0.19810441
000110 49 69 6d 3d 58 0e 65 3d 89 d2 ac bc 05 0a b2 bd
       0.057961736 0.055921882 -0.021096485 -0.08693317
000120 bb 67 21 3e f8 2e 87 3e 1b 50 2b 3e 1d dd 3b be
       0.15762226 0.26403022 0.16729777 -0.18346067
000130 6c 2f 7e be c1 16 f7 bc e2 7f 20 3e 83 4e a1 3b
       -0.24822778 -0.030162217 0.15673783 0.0049226894
000140 ec dd 44 3e 01 2f b3 3d cb d2 1a bc 7b 2d 47 be
       0.19225281 0.087492 -0.009449671 -0.19450943
000150 d5 d4 1d be 8d 0d 46 3e c7 8e 83 3d b3 cd d1 3c
       -0.1541322 0.19341107 0.06423717 0.02561078
000160 6f df 67 bd 2c 5e a3 bc 69 2c 71 3d 09 cc dd 3e
       -0.056609567 -0.019942366 0.058880243 0.4331973
000170 ec 5d 51 bc 0e 11 15 bd 60 21 50 bd 91 6d c7 be
       -0.01277874 -0.036393218 -0.05081308 -0.3895078
000180 68 c6 9b 3c a5 02 f2 3c d7 5c 3e be 75 4c 36 3c
       0.019015506 0.029542277 -0.18590103 0.011126627
000190 67 07 43 be a8 cf 20 be 26 20 0e be e5 8b 77 3e
       -0.19045793 -0.15704215 -0.13879451 0.2417446
0001a0 70 b3 cf bd 39 b3 12 be 5e ec 4f be 4d 5a 41 3e
       -0.10141647 -0.1432618 -0.2030501 0.18882103
0001b0 91 30 18 be dc 46 20 bd d3 a9 b8 3c 30 66 89 bd
       -0.14862277 -0.039130077 0.022541916 -0.06708944
0001c0 24 d5 15 be 28 f3 11 3d 6d e2 54 3d 94 b5 f6 bb
       -0.14632088 0.035632282 0.05197375 -0.00752897
0001d0 f9 bc 06 be 4a 09 61 3e c5 48 4a be 39 a0 a7 bd
       -0.13158025 0.219762 -0.19754322 -0.08184857
0001e0 14 80 bc 3d 0d 45 63 bb ce 64 ad 3d f9 f7 c4 bc
       0.092041165 -0.0034678609 0.084664926 -0.024044024
0001f0 b7 a5 e2 bd 87 ab 60 bd 42 a9 fc bd 72 ec 5d 3e
       -0.11066764 -0.05485108 -0.12336971 0.21672228
000200 e6 bc e4 3d 1b 2f 9c 3e 06 97 0f 3e 6a bc 17 be
       0.11168842 0.3050469 0.14022455 -0.14817968
000210 16 18 be 3d 0f 8e 59 3e 18 4b 8e bd c1 17 54 be
       0.09281938 0.21245597 -0.06947917 -0.20712186
000220 a0 7e 44 3d 7c c3 a0 bd 6e 8a 9b 3e 49 b1 ea ba
       0.04797232 -0.07849786 0.3037905 -0.0017905618
000230 57 3d 11 3e f0 6c e8 3d 60 9b 07 3e cf c1 37 be
       0.14183556 0.11348903 0.13242865 -0.17945026
000240 84 96 3c 3e a5 3a 54 be 11 6f 60 be 28 49 ef bd
       0.18416792 -0.20725496 -0.21917368 -0.11683875
000250 8b a1 af bd 56 df ac 3a 15 61 87 3e be 9d 3a 3d
       -0.08575734 0.0013189118 0.26441255 0.04556059
000260 cb 5b 9b 3d a5 2b 04 be e4 63 10 3e 67 a8 ee 3c
       0.075858675 -0.12907274 0.14100605 0.029133035
000270 7b 4a 13 3d fd 24 71 be bb 82 02 3f 53 bb 82 3e
       0.035959702 -0.23549266 0.5098073 0.25533542
000280 5d cb a1 3c dd 7f 7d 3e 96 77 04 be 3d df fc bd
       0.019750291 0.24755807 -0.12936243 -0.12347267
000290 31 07 04 3e c1 91 9a bd d5 57 77 3e e6 45 0b 3e
       0.12893368 -0.075473316 0.24154599 0.13600883
0002a0 30 4c 54 bd 05 5f ef 3d a4 7b 9d bd 57 17 49 3e
       -0.05183047 0.116880454 -0.07689598 0.1963781
0002b0 d9 d2 2d be 19 72 30 be 83 55 35 3d 9b 24 10 bd
       -0.16974963 -0.17231025 0.044271003 -0.03519116
0002c0 86 0b f0 3d 2b 7d a4 3d dd d3 ce 3d 2a 60 47 be
       0.11720948 0.080316864 0.100990035 -0.19470277
0002d0 9a cd 00 3e 5e 16 76 be 1d 8c a8 3d 38 39 9c bd
       0.12578431 -0.2403197 0.082298495 -0.07628101
0002e0 6b 23 1d 3d df 9c 86 be 98 6e 67 be a1 3e 70 be
       0.038363855 -0.26291558 -0.22600782 -0.23461391
0002f0 59 b9 04 3e ce ae 23 3e 6c 1b be bd c7 5d e4 bd
       0.1296133 0.15984651 -0.09282574 -0.11150699
000300 17 fe f5 bd 25 52 61 3f e7 89 15 3e bc d5 da 3c
       -0.120113544 0.8801597 0.14603387 0.026713245
000310 2c e7 63 3e 0b 61 3d 3f 23 b3 44 bb 0d 6d b7 bd
       0.22256154 0.739762 -0.0030014 -0.08956347
000320 da 74 e5 3c ef 29 43 bb 2e 65 4f 3f 14 14 d0 3d
       0.02800982 -0.0029779633 0.8101376 0.101600796
000330 8c 3b 0d 3e 8f df 61 be 45 86 a6 be d2 9b 4f 3e
       0.13792247 -0.22057937 -0.32524315 0.20274284
000340 42 4a 9a bd ef ad 51 be fe c0 40 be 91 d9 e6 bd
       -0.07533695 -0.20476507 -0.1882362 -0.11271966
000350 53 b0 f9 bd 6f ef 93 3d 43 44 3d 3e 09 98 6d be
       -0.12191834 0.07223403 0.18483071 -0.23202528
000360 19 5a 1e bc 28 8c ac be 17 8b a6 3e 57 e6 2b 3e
       -0.009665036 -0.3370068 0.32527992 0.16787086
000370 83 9c 84 be 67 80 25 3e af a3 1a 3f 32 fa 7c be
       -0.2590066 0.16162263 0.6040601 -0.24704817
000380 c9 03 21 3e d2 11 67 3e e7 92 17 3f 11 ae aa 3d
       0.157241 0.22565392 0.5920853 0.08333982
000390 04 58 25 3e 7b d3 7b be 31 c2 63 3e be ff 1c 3e
       0.16146857 -0.24592392 0.22242047 0.15331933
0003a0 40 13 d9 3d e2 42 4d bd 04 93 c4 bd 0e b6 ce bd
       0.10599375 -0.050112613 -0.095983535 -0.10093318
0003b0 c0 53 61 3e e0 e3 19 be 71 be 2d be d8 9a ef bd
       0.22004604 -0.15028334 -0.16967179 -0.11699456
0003c0 0d d3 1f bd da 96 e3 3e 27 0f 80 3b 44 c5 97 bd
       -0.039019633 0.44451028 0.0039080563 -0.07410672
0003d0 6b 46 ce bc 89 15 97 bd 4c 83 f7 bd b7 14 a8 bb
       -0.025180062 -0.073771544 -0.1208559 -0.0051294225
0003e0 2f 9c d3 bd 64 e8 e0 3d 06 8b b8 bd d4 e7 9c 3e
       -0.10332524 0.10981825 -0.090108916 0.3064562
0003f0 62 f9 e5 3d 3b 65 a3 bd 13 e5 01 be 5e a4 0b 3f
       0.112292066 -0.079782926 -0.12685041 0.5454768

arith.constant2 f4 [64, 128]
000000 b0 b1 d7 bb f2 11 12 be aa 7f 13 3e 24 81 b3 bd
       -0.0065824613 -0.14264658 0.14404169 -0.08764866
000010 96 f9 fd 3d 6c 64 02 3e 6a 08 8f 3e 6d 72 bc bd
       0.1240112 0.1273362 0.27936107 -0.092015125
000020 00 ef 4f bd 49 1f f9 bd 15 2c 73 be da f4 3c be
       -0.050765038 -0.1216417 -0.23747285 -0.18452778
000030 d2 58 6a 3d 3f e4 01 3e c5 39 08 be 99 05 fa bd
       0.057213612 0.12684725 -0.13303287 -0.12208099
000040 6b db 06 be 07 00 40 3c 86 87 b6 bb 6e 17 e5 bd
       -0.13169639 0.0117187565 -0.005570355 -0.111861095
000050 2a 2f ba bc a0 47 05 bd 8e e4 e3 bd ef 17 e9 3d
       -0.022727568 -0.03253901 -0.11127578 0.11381518
000060 b3 52 0a be 40 06 30 bd ca ca f4 bd b6 c1 4b 3d
       -0.1350811 -0.04297471 -0.119527414 0.049745284
000070 ce fd 0b bd 2b 95 53 be 40 c1 56 3e 96 0f af bd
       -0.034177594 -0.20662372 0.20972157 -0.08547895
000080 61 bc e3 bb d6 8f 14 be 75 ba 36 be ea 56 39 be
       -0.0069499467 -0.14507994 -0.17844565 -0.18099561
000090 02 8b f3 3d b8 e2 30 bd 91 52 ef bc ab 9b b5 bd
       0.11891748 -0.043184966 -0.029214175 -0.08867582
0000a0 82 7f 82 3c b7 20 88 bd b2 68 57 3e 8c ea 3a 3e
       0.015929941 -0.06646865 0.21036032 0.18253535
0000b0 db 05 e3 3b b4 ff 57 3d e0 49 32 be be 57 70 3e
       0.0069281883 0.052734092 -0.17410994 0.23470971
0000c0 a9 c1 9c bd 10 f6 ea 3c 4b d9 71 bd d0 74 ce 3d
       -0.07654125 0.028681785 -0.059045117 0.10080874
0000d0 99 2c 32 be fc 38 38 3d a7 b9 37 be 1e cd 09 be
       -0.17399825 0.04497622 -0.17941914 -0.13457152
0000e0 4e 53 a5 bd 61 97 64 be c3 f4 07 be 21 9d 82 3c
       -0.0807253 -0.22323371 -0.13276963 0.015944066
0000f0 db 59 05 be 7d 84 82 3e 77 a2 1d be 36 27 64 bb
       -0.13022558 0.25491706 -0.15394007 -0.003481341
000100 0b d9 ce 3d 0c dd 03 be 59 22 09 3e 2c a4 d5 3d
       0.100999914 -0.12877291 0.13392009 0.10431704
000110 71 e3 3b bd a7 40 fb 3d 18 d1 12 bd 39 5f f0 3d
       -0.045871202 0.12268191 -0.03584394 0.11736912
000120 89 1e 06 3e 8d ac a7 3d 67 1b 76 3d c8 c3 90 bd
       0.13097586 0.08187208 0.060084727 -0.07068592
000130 da 8a f7 3d 62 e5 26 be cf b5 de bd 88 71 dd 3d
       0.12087031 -0.1629844 -0.10874521 0.1081267
000140 46 4b a3 bc bc 1a dc bd 71 fe c4 3d 4a 59 62 bd
       -0.019933354 -0.10747287 0.09618843 -0.055260934
000150 a2 4a ab bd 57 ed b3 39 ce 73 31 3e 18 92 9b bd
       -0.083638445 0.00034318372 0.17329332 -0.075962245
000160 8d b3 f4 3d ff 48 06 be ad 49 37 3d f0 e4 de 3d
       0.11948309 -0.13113783 0.044747997 0.1088351
000170 83 4c 23 3e c9 62 b0 3d d1 51 22 3e 76 f7 47 3d
       0.15947156 0.08612592 0.15851523 0.04881998
000180 c3 8e b4 bd 56 b0 4b 3e 4a 93 17 be 36 9a 9c bd
       -0.08816292 0.19891486 -0.1480228 -0.07646601
000190 16 ed b2 3d 29 52 3e 3e ec 72 0e be 9f 63 60 3c
       0.08736627 0.18586029 -0.13911027 0.0136956265
0001a0 82 7e 0e 3e b6 53 66 bd c6 8b ee bd fe 69 9f 3c
       0.13915446 -0.056232177 -0.116477534 0.01945972
0001b0 94 dc 03 3e 5c 06 27 be e8 bc 66 3c cd eb 99 3d
       0.12877113 -0.1631102 0.014083125 0.075156786
0001c0 b5 00 9a bc fb ba a9 3d 70 f7 98 bd 7e 9e ef 3d
       -0.018799165 0.08287617 -0.0746907 0.11700152
0001d0 bc 18 11 be cb c5 c2 3d 43 64 17 3e 21 dd 61 3c
       -0.14169592 0.09510382 0.1478434 0.013785631
0001e0 81 76 17 be cc c5 54 be 4c 4e e6 3d d8 b0 ba bd
       -0.147913 -0.20778579 0.11245403 -0.091157615
0001f0 b3 ff 6a 3d 73 51 c5 3c 86 72 8e 3d 27 92 02 3d
       0.05737276 0.02408669 0.06955437 0.031877663
000200 02 fc 24 be 35 2b d8 bc 42 06 99 3e 47 f8 45 be
       -0.16111758 -0.02638779 0.29887587 -0.19332992
000210 6b 83 9c bd f8 65 81 bc 69 88 8e 3c 68 bf 45 bd
       -0.076422535 -0.015795693 0.01739903 -0.048278242
000220 e7 47 7f bc 88 d5 41 be 6f 5a 52 3d 6c 6d f1 3c
       -0.015581108 -0.18929112 0.051355775 0.029471122
000230 ee 10 93 3e 59 43 12 3d f1 14 f7 3c af 22 f3 3d
       0.28723854 0.03570876 0.030161353 0.1187185
000240 df 14 7c bd 1a 84 c9 3e 6e 08 ad bd d3 3e 13 3e
       -0.06154334 0.39358598 -0.084488735 0.14379434
000250 9a 13 74 bd bc 5c 54 3e 31 3e 4a 3e 5b 84 47 be
       -0.059589006 0.207385 0.19750287 -0.19484083
000260 a2 9a 66 3c b0 76 5c 3e 79 e8 11 3e 24 c4 92 3e
       0.014074953 0.2152965 0.14248838 0.28665268
000270 1f 81 69 bd 81 8d 6f bd fe 56 db 3d c3 0e 30 3d
       -0.057007905 -0.058484558 0.10709952 0.042982828
000280 cf e0 c1 bc 38 d7 40 3d 9f 62 a9 3d b7 4c 4e bd
       -0.023666767 0.04708025 0.082707636 -0.05036613
000290 97 08 13 bd f6 27 23 3e c5 72 cd 3c 06 51 94 bd
       -0.035896864 0.15933213 0.02507914 -0.072420165
0002a0 51 09 01 be 18 85 c9 bd 1f 84 ec 3d af 6b 70 3e
       -0.1260121 -0.09839839 0.115486376 0.23478578
0002b0 52 85 34 be 11 e0 2f 3d f5 56 b9 3d 58 fc b2 3d
       -0.17628983 0.042938296 0.09049789 0.08739537
0002c0 98 3c 42 be 9d 95 1a bd 92 34 61 bc 17 e8 26 3c
       -0.18968427 -0.03774034 -0.013745444 0.0101871705
0002d0 49 2a 8c bc 7f 56 de bc 03 7f 44 be 4b 52 9a bd
       -0.017110007 -0.027140854 -0.19189076 -0.075352274
0002e0 6c cf 43 bd 93 58 47 3e 3d ae 41 bd dd 8a 9a bd
       -0.047805235 0.19467382 -0.047285307 -0.07546017
0002f0 44 80 ea bd f4 9a b4 3e 3f c4 c5 bc 16 1a 94 bc
       -0.11450246 0.3527447 -0.024141429 -0.018078845
000300 37 ed 1b be c2 38 24 3e 5f cc 72 bd 41 03 fb 3c
       -0.15227209 0.16037276 -0.059276935 0.0306412
000310 40 83 13 3e e4 b1 99 3e 2d 68 c7 bd 32 c1 7b 3e
       0.14405537 0.30018532 -0.09736667 0.24585417
000320 a2 4d a0 bc 41 f5 b6 bb 5b ce 0f 3e c4 3c 67 be
       -0.019568268 -0.0055834358 0.14043562 -0.22581774
000330 24 fa f7 3d 99 c5 ba bd 24 b4 b9 ba 82 35 ab bd
       0.121082574 -0.0911972 -0.0014168066 -0.08359815
000340 11 c6 e6 bd bd 96 bc 3b e3 9d 63 3e 29 32 de bd
       -0.11268247 0.005755274 0.22228198 -0.10849411
000350 bb c3 9f 3e 4a cb b4 3e d0 ba 3b 3e 41 fc 3e bd
       0.31204018 0.35311347 0.18332982 -0.046627287
000360 1b 4c d9 3d 1b 00 01 be e5 71 bc 3c 67 8c 0a 3e
       0.10610219 -0.12597696 0.023003528 0.13530122
000370 75 72 c9 bd 02 5a 46 be 6b 62 e7 bd 8f eb 30 bc
       -0.09836284 -0.19370273 -0.112980686 -0.010798349
000380 49 ce 22 3d e4 6b d9 bd a2 81 e8 3c 71 55 b8 bb
       0.03974751 -0.10616282 0.028382126 -0.00562542
000390 f7 b7 6c 3c 51 6d fb 3e 8e 55 83 bd d6 ee 2f 3e
       0.0144481575 0.4910684 -0.06412803 0.17180952
0003a0 fb 5d 77 bc 3b e3 51 bc c3 9d 6b bd e0 7b a6 3e
       -0.01509809 -0.012810524 -0.0575235 0.32516384
0003b0 89 c5 ef 3e 54 0d c4 3d 36 bb 0d be fc 5a af 3c
       0.46830395 0.09572855 -0.13840947 0.02140569
0003c0 05 7a 5a 3d c0 f1 1b be 74 db ae 3d f2 82 f3 3d
       0.053339023 -0.15228939 0.08537951 0.1189021
0003d0 0e 67 4b be 5c 10 8d 3d 8b f4 8f 3d 32 e0 8c bd
       -0.19863531 0.06887886 0.07029065 -0.06878699
0003e0 d6 96 73 3c 94 cc 61 3d 3d 66 27 3e b1 45 04 3e
       0.014867505 0.05512674 0.16347595 0.1291721
0003f0 11 99 1b 3d 7f 5f c7 bd 14 61 4b 3e 6f bd ba 3d
       0.037987772 -0.09735011 0.19861251 0.09118163

arith.constant3 f4 [5]
000000 f7 76 61 3e c3 ad 3c be 57 55 4c 3d be 0a 6b be
       0.22018038 -0.1842566 0.049886074 -0.22953317
000010 95 24 be bd
       -0.09284321

arith.constant4 f4 [32]
000000 bf 5e 56 be ed cc 01 be 18 62 e0 bd 51 d9 87 bd
       -0.2093458 -0.12675829 -0.1095621 -0.06633247
000010 10 8a 3c 3e eb 9f 2b 3d 76 3f 3d be 40 fe 25 be
       0.18412042 0.041900557 -0.1848124 -0.1621027
000020 50 01 b3 bd ef 4d ee bd c5 aa 4c bd 2f e3 c4 3d
       -0.08740485 -0.116359584 -0.049967546 0.09613644
000030 a2 25 04 bd bf a8 31 3d 20 72 99 bd 13 6a e6 bc
       -0.032262452 0.04337382 -0.07492471 -0.028126752
000040 46 34 0e 3d 7d df 3e be 0d 38 9d 3c 50 bf 99 bd
       0.03471782 -0.18639942 0.019191766 -0.07507193
000050 09 ab 73 3e 62 03 0a 3e 09 9e 20 be 3e 11 9e 3e
       0.23795713 0.13477853 -0.15685286 0.3087253
000060 29 34 8c bd 1b ce 3d 3e 24 e2 07 be e2 ca c8 bd
       -0.06845886 0.18535654 -0.1326986 -0.09804322
000070 a1 09 de ba 50 5e 15 3e 60 e1 18 be 39 49 85 3e
       -0.0016940125 0.14586759 -0.14929724 0.26032427

sequential_1/dense_1_2/Add/ReadVariableOp f4 [64]
000000 27 ce 81 3d 59 ce 38 3e 49 bd d0 3c 84 09 eb bc
       0.063381486 0.18047465 0.025480883 -0.02869106
000010 6d 96 45 bd ad db 3e 3e 28 1b d0 3d 7e 50 c6 bc
       -0.04823916 0.18638487 0.1016143 -0.024208304
000020 4e fc c2 3c 6a 52 2d be fd b2 20 3e 72 47 21 3e
       0.023801949 -0.1692597 0.15693279 0.1574991
000030 5a c7 53 bc 38 8a e1 bc d8 b8 c3 3c 14 3e 91 bd
       -0.012925947 -0.027531728 0.023891851 -0.070919186
000040 0b 42 20 be b4 06 20 3d 50 1a d1 3d 7f f9 69 3c
       -0.15650193 0.039068893 0.10210097 0.014280676
000050 51 b2 2b bd db 68 9a bd b6 47 f0 bd 35 4c ec bd
       -0.041918103 -0.07539531 -0.11732428 -0.11537973
000060 14 fa eb bd 58 8e 24 3e 8a 97 08 3e 16 90 f6 bc
       -0.11522308 0.16069925 0.13339058 -0.030098002
000070 8b e5 01 3e 23 95 e2 bc 36 48 62 3e c9 ba 4b 3d
       0.1268522 -0.027659005 0.22097859 0.04973868
000080 03 3b 28 bd 1e 63 f8 3d d1 c1 dc 3d ec 28 bc bd
       -0.041071903 0.1212828 0.10779155 -0.09187493
000090 f5 f5 a3 bd 4f e6 14 be 03 36 98 3d 3e 87 19 3d
       -0.08005897 -0.14540981 0.07432177 0.037482493
0000a0 11 ef ed bc c9 0b 26 be e1 a6 48 3c 31 4b 26 bd
       -0.02904466 -0.16215433 0.012246818 -0.040599052
0000b0 3c b3 32 bd ab 63 8c 3d 6e c5 03 3e 8e 5d 1a 3c
       -0.043627962 0.06854948 0.12868282 0.009421719
0000c0 47 7d d3 bb e0 b3 4a 3e 92 90 11 bd da ba 78 bc
       -0.006454143 0.1979518 -0.035538264 -0.015181268
0000d0 f3 bc 90 3e 97 79 69 bd 5c 34 e1 bd 23 ba 38 3e
       0.28269157 -0.057000723 -0.10996315 0.18039756
0000e0 87 bd a1 3d 68 b6 06 bd ca 06 6e 3d 86 95 8d 3d
       0.078974776 -0.0328888 0.058111943 0.06913285
0000f0 ae fe 2f 3e fd 03 55 be c1 86 a7 bc e2 c7 0d 3e
       0.17186996 -0.20802303 -0.020449998 0.1384578

sequential_1/dense_1/Add/ReadVariableOp f4 [128]
000000 82 98 ba bc f7 95 a1 bd ba 4f 95 3e fd ef bf bd
       -0.0227778 -0.07889932 0.2916239 -0.09371946
000010 12 67 d7 bd b3 db 4d 3d 59 b9 70 3d 53 52 4f be
       -0.10517706 0.05025835 0.05877051 -0.20246248
000020 3e 59 02 3e f7 73 f1 3d f4 49 27 3e 89 73 0b 3e
       0.12729356 0.11789697 0.16336805 0.13618292
000030 f1 b2 73 3e 1e 01 e4 bc 04 ca 43 be ac 61 0d bd
       0.2379873 -0.027832564 -0.19120032 -0.034516975
000040 a7 a7 c1 3c 70 5d 76 3e b5 23 5a be 25 a6 6c bc
       0.023639513 0.24059081 -0.21302684 -0.014443909
000050 c3 28 fc bd 63 ee 3f 3e 74 b2 60 3d 9c c1 33 bd
       -0.12312462 0.18743281 0.054857686 -0.043885812
000060 af fa 7f 3e b1 a7 94 bd 7e 31 01 be 81 d5 3e 3e
       0.24997972 -0.07258547 -0.12616536 0.18636133
000070 0f 71 46 be 48 cc cf bd c1 2c 9e 3d 00 e1 ed bd
       -0.19379066 -0.101463854 0.0772338 -0.11615181
000080 3b d3 74 3d 37 ab 3d 3e 96 6d 9c 3e b9 dd 47 bd
       0.059771758 0.18522345 0.30552357 -0.048795436
000090 bd f3 93 3e 00 29 2e bc 10 04 05 3e 91 a1 4f be
       0.28896895 -0.010629892 0.12989831 -0.20276476
0000a0 ac 4c 7d be 83 9f 1a 3d 17 31 73 3e 39 f3 28 3e
       -0.24736279 0.03774978 0.23749195 0.16499032
0000b0 26 7c b9 bd 29 2f 8f 3d 7e b6 0c bd 1f 20 9e 3e
       -0.090568826 0.06991417 -0.034353726 0.3088388
0000c0 b6 0f ce bc e4 6b a6 bd 1c 25 a5 3e db 46 f0 3d
       -0.025153976 -0.08126047 0.32254875 0.117322646
0000d0 79 4e 36 be 6b 90 10 bd aa 0a 84 bc e9 8d 0c 3e
       -0.17803372 -0.035293978 -0.016118366 0.1372601
0000e0 86 19 f8 3d d8 d6 9e 3e fa 40 33 bc 6c ab f8 3d
       0.12114243 0.31023288 -0.010940785 0.12142071
0000f0 39 de 82 be c0 62 9d 3e a9 ba ce bb 80 ca 94 bd
       -0.25560167 0.30739403 -0.0063088727 -0.07265186
000100 59 af ed bc 72 54 a7 3c f8 d5 9e bd 69 9b 77 3d
       -0.029014276 0.020426009 -0.07755655 0.060450945
000110 d0 a3 7d bc 53 dd 6d 3e 8f 15 e9 bd d4 6c ff 3d
       -0.0154809505 0.2322896 -0.11381065 0.12471929
000120 eb e4 bc bd cb 38 01 3e fa 94 08 3e ab b2 66 bd
       -0.0922335 0.12619321 0.1333808 -0.056322735
000130 49 35 15 be b5 8d 90 3d 06 16 b4 bd 28 ed ab 3b
       -0.14571108 0.070582785 -0.08793263 0.005246777
000140 cf fa b3 bd b2 b1 88 be c3 80 02 3e 61 36 4e 3e
       -0.08788072 -0.2669807 0.12744431 0.20137931
000150 9d 1a 1c 3e c7 31 a7 3e 35 e1 45 3e b3 92 14 bd
       0.15244527 0.32655165 0.19324191 -0.036272716
000160 06 6e 8f bd 53 0b 41 bd 74 a9 70 be 06 6c 2c 3e
       -0.07003407 -0.04712994 -0.23502141 0.16838083
000170 47 b3 6b be 40 1c 4e 3d f0 3b 4b be 47 16 20 bb
       -0.23017608 0.05031991 -0.19847083 -0.002442734
000180 15 88 d0 3b fa 4a a9 3c 4a 91 33 be 96 87 f6 3d
       0.0063638785 0.020665634 -0.17535892 0.1203758
000190 53 af b7 bd a7 79 aa 3e 46 fa c8 bd d1 6d 75 3e
       -0.08968987 0.33295938 -0.09813361 0.23967673
0001a0 72 90 ac bd fa e4 2f bc 10 81 1d be e0 af 8a 3e
       -0.08425988 -0.010735745 -0.15381265 0.27087307
0001b0 3b 6d a2 3e 57 65 4f be 84 f7 18 be a6 ed b6 3c
       0.3172396 -0.20253502 -0.1493817 0.022330116
0001c0 89 fe 2b be 81 18 ec bd e5 59 3c be a9 2c 8e bd
       -0.16796316 -0.11528111 -0.18393667 -0.06942112
0001d0 9a ea d0 bc 9b 82 00 3d d1 bd 4d be 6a 47 95 bd
       -0.025502492 0.031374555 -0.2009194 -0.07289012
0001e0 e6 c0 3d 3d 21 1b 88 bd 34 64 f0 3d 0e 7f 87 be
       0.04632654 -0.066457994 0.11737862 -0.26464123
0001f0 d3 71 51 3e 6c 39 d6 3c 62 c5 55 3d 2b 2c 75 3e
       0.20453577 0.026150428 0.052190192 0.2394263

sequential_1/dense_1/MatMul f4 [128, 4]
000000 f9 c1 d8 3b 1f af 4b 3e 4d 78 e0 bd dd fa 24 3e
       0.00661492 0.19891022 -0.109604456 0.16111322
000010 92 e4 8f bd 30 04 96 3e f6 c1 10 3e c8 cb 77 3d
       -0.07026018 0.2930007 0.1413649 0.060497075
000020 e3 3b 24 3d 97 86 00 3e 31 01 8b 3d ee 1b 27 3e
       0.040096175 0.12551342 0.067873366 0.16319248
000030 4c c9 a6 bd 97 60 86 3e cd 70 7a 3e c0 eb d2 bd
       -0.08143863 0.26245567 0.24457093 -0.10298872
000040 ca 07 aa 3b e4 5c 52 bd 83 9d a9 3e f5 dc 17 be
       0.005188917 -0.05135812 0.33127984 -0.14830382
000050 56 77 4f be ae 91 38 be 09 e0 43 3e f6 61 26 be
       -0.20260367 -0.18024322 0.19128431 -0.16248307
000060 e6 29 d3 bd 28 6b c3 3e 8b 20 80 be 59 5a 8f bd
       -0.10310726 0.3816769 -0.25024828 -0.06999654
000070 2c f1 3c 3e 9b 31 c6 3d 7c 29 8b 3e 1b 2f 07 3e
       0.18451375 0.0967743 0.27180088 0.13201563
000080 d2 61 4a be 84 02 7b be 3b 0d 07 be 6c 01 e7 3d
       -0.19763878 -0.24512678 -0.13188641 0.11279568
000090 99 59 41 bd b9 5f 83 3e 71 83 77 3d a1 ae ee bc
       -0.047204588 0.25658968 0.060428087 -0.029136004
0000a0 3c 17 d1 bd 76 33 bb 3e e7 1c 13 3e 93 c9 e5 bd
       -0.1020951 0.365627 0.14366494 -0.11220088
0000b0 a4 2f 3f be 72 93 5f 3e f7 ec a8 3d df a2 47 be
       -0.18670517 0.2183359 0.082483225 -0.19495724
0000c0 27 21 14 3d 30 cb b0 bd 5d 62 00 be d8 72 2b 3e
       0.03616443 -0.08632505 -0.12537523 0.16743028
0000d0 5d 44 0e be 85 67 f0 bc ac 78 a2 3e 8d bc 11 be
       -0.13893266 -0.029346237 0.3173269 -0.14232083
0000e0 cf 3b de 3d 25 56 1a 3e 0f 57 e0 3b 12 e3 1e 3e
       0.10851251 0.15071924 0.0068463157 0.15516308
0000f0 8a 25 80 bd df dc 98 bc f2 d1 02 bc d8 b2 1f 3e
       -0.0625716 -0.018660007 -0.007984625 0.15595567
000100 c0 ba 41 bd 06 49 00 be 98 4e 12 3e 07 88 6d bc
       -0.04729724 -0.12527856 0.14287794 -0.0144977635
000110 70 c3 7d bd 0c cc ce 3d 36 90 86 be 7b 70 a9 3d
       -0.06195396 0.100975126 -0.262819 0.08273407
000120 11 ac a1 3d 64 13 ae 3b 50 20 0a 3e 83 9c 2d bc
       0.07894147 0.00531237 0.13488889 -0.010596397
000130 96 11 33 bd a8 2d 1a be ac 79 30 be b9 d9 08 3e
       -0.043717943 -0.15056479 -0.17233914 0.13364305
000140 53 67 1c bd f1 00 bb 3e 1c 1a 5b be 47 e5 07 3e
       -0.038184475 0.36524156 -0.21396679 0.13271056
000150 42 e4 a3 bd 2b a0 ac 3d 32 c1 38 3d 8e 2e d2 bd
       -0.08002521 0.08428987 0.04510612 -0.10262786
000160 df 95 3e be 9c 27 20 be ad 19 65 be 11 b9 a7 bd
       -0.18611859 -0.1564011 -0.22373076 -0.081895955
000170 5d 7c 25 3b 57 c8 83 3e 17 60 6a bd ac e7 33 3a
       0.0025251128 0.25738785 -0.057220545 0.000686283
000180 8b 0c 76 be d0 bc c3 3e ca 59 5e be 02 e6 44 be
       -0.24028222 0.3822999 -0.2171394 -0.19228366
000190 14 eb 69 be a2 c6 86 bb b6 22 b0 bc 81 21 a3 bd
       -0.22843581 -0.0041130343 -0.021500926 -0.07965375
0001a0 f3 54 db 3c af 0a f1 3d 3b 31 7d 3d 17 26 ce 3d
       0.026773905 0.11769616 0.061814528 0.10065859
0001b0 ac 95 cb bd 78 bc 97 3d 4a 18 65 be 6a bd 07 be
       -0.09940657 0.074089944 -0.22372547 -0.1325585
0001c0 60 ed 4c 3e 73 cf aa be 90 12 fe 3c c6 a8 e3 3d
       0.20012426 -0.33361396 0.03101471 0.11116175
0001d0 a1 e3 dc bc ef b1 f2 3d c3 a7 8d 3e 24 e2 11 bd
       -0.02696401 0.118503444 0.27667055 -0.035616055
0001e0 44 96 71 be 67 cd 99 bd c0 b0 16 be 6f eb 1d 3d
       -0.23592478 -0.075098805 -0.14715862 0.038554605
0001f0 5f 30 da bd 98 60 78 ba c6 a5 55 3e 26 7e ac bd
       -0.10653757 -0.0009474843 0.20864019 -0.084224984
000200 71 50 f1 bd 78 12 a0 3e 4a 92 4e bd 9f ee 05 be
       -0.11782921 0.3126409 -0.05043248 -0.13079308
000210 a7 5b b7 3d e9 16 4a bc ca a8 81 be 8b d6 21 3e
       0.08953028 -0.012334564 -0.25324088 0.15804498
000220 8a 14 33 be 5c 99 b5 3e ad 58 68 3e 7c 8f 3d be
       -0.17488304 0.35468566 0.22690077 -0.18511766
000230 9c 38 19 3e 1b 27 84 3e 5e 5e ce bd d3 16 fa bc
       0.14963001 0.25811085 -0.10076593 -0.030528462
000240 9e 10 23 be 79 ac 5a 3e ad bd 19 be a4 cf ea bc
       -0.15924308 0.21354856 -0.15013762 -0.028663464
000250 2e 5c 92 bb 04 6b a2 bd 20 2f 20 be d0 3e 51 3e
       -0.004466555 -0.07930568 -0.15642977 0.20434117
000260 b2 82 c7 3c 66 e2 4f 3d 0d da eb bd c9 41 e0 3d
       0.024354313 0.05075302 -0.11516199 0.109500475
000270 c2 5e 2e bd 13 7d 88 be 0a 1c b3 3d d8 45 d7 bd
       -0.042570837 -0.26657924 0.087455824 -0.105113685
000280 97 84 35 3e 1d 56 06 bd c8 ba 65 bd 09 d5 cf 3d
       0.1772636 -0.032796968 -0.05608633 0.10148055
000290 3d 77 86 be 65 85 13 be 96 24 12 be b4 5b bb bd
       -0.26262847 -0.14406355 -0.14271769 -0.0914835
0002a0 71 fb b7 3c 0c 30 48 bd e6 a1 91 3d 2e de 5e 3e
       0.022458764 -0.048873946 0.07110958 0.21764442
0002b0 72 cb c3 bd 7b 41 dc 3d f9 e0 15 be 03 d9 8c bd
       -0.095602885 0.10754677 -0.14636602 -0.06877329
0002c0 6d 1e 3f 3e 45 26 ac 3d 17 12 54 be ee 7f 18 bc
       0.1866395 0.08405737 -0.20710026 -0.009307845
0002d0 b7 2f 43 3e da 54 dd 3c 17 2c 47 3e 20 09 33 3e
       0.1906117 0.027018 0.19450413 0.1748395
0002e0 d1 1b c2 3d 7f 9b 0d 3e 80 dd 96 be 78 43 75 3e
       0.09477962 0.13828848 -0.29465866 0.23951519
0002f0 f2 bd 09 be 56 e0 92 3e 0e 8c 47 bd ab 08 48 bd
       -0.13451365 0.2868678 -0.04871755 -0.04883639
000300 85 fe 5d bd 57 7d c4 3b 73 3d 99 3e 62 05 0d bd
       -0.054197807 0.005996387 0.29929695 -0.03442896
000310 3d 61 1a 3e 96 7a 57 3e 9c e9 e8 3d df 54 57 3e
       0.15076156 0.21042857 0.113726825 0.2102847
000320 9b af 22 be 22 df 81 3e f1 48 25 be 8d 9c c6 bc
       -0.158873 0.2536555 -0.16141106 -0.024244571
000330 f3 6a c0 3d f7 cf 60 3d 80 b5 b5 3d ad e4 e6 3d
       0.09395399 0.05488583 0.08872509 0.11274085
000340 69 1e 43 3d 77 4c ee be 28 a2 2b 3d d0 4b c1 bd
       0.047636423 -0.46542713 0.04190269 -0.09438288
000350 7e ca 30 be 2a 87 c3 be 36 3c 11 be 94 50 ff bd
       -0.17264745 -0.3818906 -0.14183125 -0.12466541
000360 da 8d 4a 3d 70 3e 5d 3e 57 a7 90 be 6a 83 25 bc
       0.049451686 0.2160585 -0.2825267 -0.010102132
000370 0c 8a 05 3e fe 46 09 be a0 22 50 3e 8f 51 21 3e
       0.13040942 -0.13405988 0.20325708 0.15753768
000380 4b ea 1c be e5 1e 2e be 38 38 1a be fc 12 0c 3c
       -0.1532375 -0.17003973 -0.15060508 0.008549448
000390 f5 fb 34 be 76 d7 1d 3e 4f ce 4a 3e 37 3e fb bd
       -0.17674239 0.15414223 0.19805263 -0.12267726
0003a0 9c ea 33 3d 83 0c 8d 3e c6 11 84 be 49 15 2b 3e
       0.043924913 0.27548608 -0.2579481 0.16707338
0003b0 cb af 6f be d9 61 75 be 7c 85 3b be 28 4b 0b 3d
       -0.23406903 -0.23963107 -0.18312639 0.03400722
0003c0 97 02 9c 3d ef 4e 88 be 7f ce 4b 3e 71 b8 50 bc
       0.076176815 -0.26622722 0.19902991 -0.012739287
0003d0 0f d4 e5 3d e8 50 25 bd 37 de 1a 3e 05 61 99 3e
       0.112220876 -0.04036036 0.1512383 0.29956833
0003e0 5f fa 85 3d 3c bb 53 3e c6 58 18 3d 8d 4c e2 3b
       0.06541895 0.20676893 0.037194036 0.006906098
0003f0 f3 26 94 3d 1c aa 10 3e 9d cf c8 bd 22 75 05 3e
       0.072339915 0.14127392 -0.09805224 0.13032964
