app/src/main/ml/model.tflite (tflite, 29132 bytes, 8 tensors)

sequential/dense_1/BiasAdd/ReadVariableOp f4 [64]
00000000: 0000 0000 62ed af3c 1be5 793c 0000 0000
00000010: 0000 0000 e817 153b 9e6d b53b e5ae 263c
00000020: 0000 0000 0000 0000 bef4 b6bb 8ca4 863b
00000030: 0000 0000 d44a 65bc 5ac3 5cbc 0000 0000
00000040: ed43 7ebc 2b7c 78bc 0000 0000 4758 a83c
00000050: 0000 0000 294b 553c 0000 0000 6540 dbbb
00000060: b147 1bbc 4d0c 573c fe4d 6f3c ed10 06bc
00000070: 13c8 973c ccfb 75ba 5a02 23bc 736a 2f3c
00000080: 5d3d a7bb 6c14 4c3c 0000 0000 0000 0000
00000090: 2568 5a3c eda0 cd3c 66b5 7e3c 0000 0000
000000a0: 0000 0000 de9f a1bc ffb5 e0ba d623 b6bb
000000b0: 72e6 3b3c 4c2f 3d3c 7d6f 0e3c 0000 0000
000000c0: 3740 a9bc 0000 0000 0a81 7cbc 0000 0000
000000d0: 190c a6bb 0000 0000 0000 0000 0000 0000
000000e0: 0000 0000 5b1d 3ebc 0000 0000 ded8 bebb
000000f0: 0000 0000 0000 0000 0000 0000 cb0f 2abc
0.0 0.021475498 0.015252377 0.0 0.0 0.0022749845 0.005536749 0.010173534
0.0 0.0 -0.0055833748 0.004108971 0.0 -0.013994891 -0.01347431 0.0
-0.015519124 -0.015166323 0.0 0.020549906 0.0 0.013018408 0.0 -0.006691026
-0.009477542 0.013125491 0.014605997 -0.008182746 0.01852802 -0.0009383529 -0.009949291 0.010706532
-0.0051037506 0.012456041 0.0 0.0 0.013330494 0.02510115 0.015546178 0.0
0.0 -0.01972955 -0.0017144083 -0.005558471 0.011468517 0.011546921 0.008693573 0.0
-0.020660503 0.0 -0.015411625 0.0 -0.00506736 0.0 0.0 0.0
0.0 -0.011603679 0.0 -0.0058241924 0.0 0.0 0.0 -0.010379742

sequential/dense_2/BiasAdd/ReadVariableOp f4 [32]
00000000: 0000 0000 0000 0000 0000 0000 0ded 89bc
00000010: 8489 efbb 0000 0000 0000 0000 0000 0000
00000020: cb68 3bbc e107 ec3a 0000 0000 32c1 0abc
00000030: c011 ee3c 3b2d 1d3c d444 1e3c 0000 0000
00000040: 0000 0000 0000 0000 2569 67bc 11d9 84bc
00000050: 48f8 9f3c 9629 993b 0000 0000 22db 0d3c
00000060: 0000 0000 d3fc a13c 218a 40bc 990d 86bc
00000070: 2dbc b3bb e669 91bc 582c 15bc 95e5 c2bb
0.0 0.0 0.0 -0.016836667 -0.0073100943 0.0 0.0 0.0
-0.011438559 0.0018007719 0.0 -0.008468913 0.029061198 0.009593303 0.009659965 0.0
0.0 0.0 -0.0141241895 -0.016216787 0.01952757 0.004674147 0.0 0.008658202
0.0 0.019773876 -0.0117516825 -0.016363906 -0.005485079 -0.017750692 -0.009104811 -0.0059477785

sequential/dense_3/BiasAdd/ReadVariableOp f4 [3]
00000000: b7a6 1e3c 0b04 943c 334a 9dbc
0.009683303 0.018068334 -0.01920042

sequential/dense/BiasAdd/ReadVariableOp f4 [64]
00000000: 201e 9b3b 0000 0000 0874 d2ba 6d32 83bc
00000010: e3d6 b4bc 0000 0000 49a6 4ebc 2432 d33c
00000020: 0a0a 90bb 0000 0000 b0f1 443b 576a 75bc
00000030: 0000 0000 4b29 cbbb 0000 0000 0e33 6c3a
00000040: 1730 08bc 0000 0000 ca89 afbc 0000 0000
00000050: 0000 0000 0000 0000 0000 0000 0802 4b3c
00000060: 40cf 88bc 0000 0000 81bb 26ba 98ca 6fbc
00000070: 0e50 47bb ab73 863c 0000 0000 4bd3 113c
00000080: 4656 9b3c 115b 5abc 0000 0000 7ef0 87bb
00000090: 048e 30bc 0000 0000 cec5 7d3c 0b24 cabc
000000a0: 0000 0000 0000 0000 6aca cb3c 0000 0000
000000b0: 0000 0000 0000 0000 488d 17bc 0000 0000
000000c0: 6ca0 263c 0000 0000 0123 9b3c ee83 0a3c
000000d0: fed8 2dbc 0000 0000 0000 0000 bed5 1c3c
000000e0: 0000 0000 0000 0000 0000 0000 0000 0000
000000f0: 51ec e5bb 59ec 80bc baa1 34bc ea00 a43c
0.004733816 0.0 -0.0016056309 -0.016015256 -0.022075122 0.0 -0.012612888 0.025780745
-0.004395728 0.0 0.0030051284 -0.014978967 0.0 -0.006199991 0.0 0.0009010293
-0.008312247 0.0 -0.021428008 0.0 0.0 0.0 0.0 0.012390621
-0.016700387 0.0 -0.0006360338 -0.014635704 -0.0030412707 0.016412577 0.0 0.008900474
0.018962037 -0.013327376 0.0 -0.004148542 -0.010776047 0.0 0.015489055 -0.02467539
0.0 0.0 0.024876792 0.0 0.0 0.0 -0.009249993 0.0
0.0101700835 0.0 0.01893759 0.008454306 -0.010610817 0.0 0.0 0.0095724445
0.0 0.0 0.0 0.0 -0.0070166965 -0.0157377 -0.011024887 0.020019967

sequential/dense/MatMul f4 [64, 4]
00000000: 9f08 a63b 5065 a6bd 6f34 85be 3119 88be
00000010: 3b59 92be d084 3ebe 4008 643e 50f6 9d3d
00000020: e05d 2d3e 3693 153e 2cda 6fbc f28a 00be
00000030: 1942 7a3e f934 91be 24a2 ac3d d520 e83d
00000040: c143 4d3e 569b 98be 398d 18be ff94 43be
00000050: fe4d 67be 9a35 073e 4848 3ebd 00a5 20bb
00000060: 1224 1ebe a29d 083d 4704 16be c6c1 87be
00000070: 8a2a 98bd 2182 0d3e e92a 90be c1cb 96bd
00000080: 11c5 893e 09e2 d9bd 891e 843a 784f 04bd
00000090: 60f6 b6bc 803c e1bb 4858 29bd 7cd2 cf3d
000000a0: 9bec c6bd b9fe 83be 36bb 94be bd23 11be
000000b0: 8b5f d03d 92c7 113e b717 923e 888c 17be
000000c0: 806d 6dbc 705d 863d 625c 5cbe 96d3 433e
000000d0: d96e fa3d 13f2 ecbc 4916 373e d15d 093d
000000e0: cb63 92be 4628 813e ce2a 44be 28f7 7e3e
000000f0: 6666 eb3d 2366 773e e804 52bd d607 3bbe
00000100: ace3 73be 3e48 6ebe ac99 b63d 0186 86be
00000110: 98a8 c2bd 8012 273d 382d 3cbd 60d9 f9bc
00000120: bd34 2f3e 6fea 7bbe bb43 e83d bf3f 38bd
00000130: 342b d1bd 7694 b5bd 4056 34be e8bd 13bd
00000140: 35c3 10be ae23 2ebe 0005 ffbb 7405 d43d
00000150: b077 24be f0e4 943e 0e45 90be 6484 d33d
00000160: 10b1 c7bd 58a0 8abe bcdf c7bd b6b2 383e
00000170: 2c50 9a3e 07b9 79be bfa7 40be 6138 213c
00000180: 244b 273e d64c 8f3e c5f1 a83d 5fc9 3b3e
00000190: 2021 673c d87a 423d 64ca 153e 2259 863e
000001a0: 24a9 c739 d0c0 7d3e bb0a e93d 6ad2 05be
000001b0: 6f2d 463e 8f74 45be 05f7 053e 5efc 8f3c
000001c0: 1633 993d 39ad 50be d767 97bc 5484 ca3c
000001d0: dfc0 023e f577 763e 1a8a 7f3e c3ec 2bbe
000001e0: 58bc e7bd d410 873e 9d97 20be e414 ac3d
000001f0: 8236 75bd 186c 96be d5a8 2e3e 4b8e b9bd
00000200: 1f78 89bd 887c b8bd 70e7 713e b8ab bfbd
00000210: cb73 d13d aa70 03be 08e3 273e c248 ca3c
00000220: 405f fcbc eddf 30be c87d 2c3d e8f1 3e3e
00000230: c5ff 6c3e 4f2a 26bc c7a5 01bd c46e 85be
00000240: 1f54 573d fc95 39bd ebd4 9dbc 8e9b 4fbc
00000250: 50ba 9bbc f6d4 843e 7856 cc3d c045 463d
00000260: 6058 0c3e 185f 903e 6d32 32bd fbdc 4bbe
00000270: 7dbd d83d 02aa f43d fa5f 553e 2605 e5bc
00000280: ba6f 7cbe e824 103d 3a1d d7bd 8056 e13b
00000290: 04ec 893d 34ba 74be fcbe d1bd 0495 843e
000002a0: 4553 26be e06a 8cbc 67a1 443e 89b8 1fbd
000002b0: 45e2 97be 6cd4 923e 343f 7fbd e29f 99bd
000002c0: 80f9 6b3b 082b 7ebe 06f8 463e fa0a 843e
000002d0: 2ece c0bd 4fc9 76be afcf 0bbe a048 50bc
000002e0: aa9b 453e a0af b33d 2402 043d afdf 4bbe
000002f0: 8bb7 17be 2f01 49be 703f 8c3c e28d 473e
00000300: c20f d5bd 998e 983e 2c41 14be b0f1 80be
00000310: 68bd 993d 2e28 31be 9443 943e 04d6 603e
00000320: fb7d 243e 2cfc fd3d b343 693e f687 0d3e
00000330: d6cc 993e 95dc e5bd abf0 6e3e 408f 4c3e
00000340: 74f1 4abe aa32 3a3d f8f5 a63d 021d 8ebe
00000350: e406 c2bd e039 16bd a875 a23d 347f 2a3e
00000360: 042f 70be 14e5 873d e816 4fbd 3e9b 043e
00000370: cdfa d43d eb49 bcbc d636 f6bd e3c3 06be
00000380: 6187 1ebe 3428 5b3e a77f 97be 00ad 98bb
00000390: c017 0dbe 0017 29bd e209 7bbe 1e0e 86bd
000003a0: 04b8 54bd 96e3 88be 5c5c 943e d680 823e
000003b0: ecf0 5dbd fbe8 07be 4662 8e3e 4c36 623e
000003c0: 0211 033e db69 14be 56d4 20be 4d67 0ebe
000003d0: ec48 6b3e fb17 5dbe 958a 7dbc 036e 4ebd
000003e0: 8868 223d ec16 eabc 0eaa 56be e5e7 4fbe
000003f0: ccdd 803e 1069 52be 8838 0f3e fbc3 3c3e
0.0050669457 -0.081247926 -0.26016566 -0.2658172 -0.28583702 -0.18605351 0.22268772 0.07712996
0.16930342 0.14606938 -0.014639419 -0.12553003 0.24439277 -0.28360727 0.08429363 0.11334387
0.20045377 -0.29806012 -0.14897622 -0.19099806 -0.22588345 0.13204041 -0.04645565 -0.002451241
-0.15443447 0.033353455 -0.14650069 -0.26515025 -0.07429989 0.13819171 -0.28157738 -0.07363082
0.26908162 -0.10638816 0.0010079901 -0.03230235 -0.022334278 -0.0068736672 -0.041343957 0.101475686
-0.09713098 -0.25780275 -0.2904908 -0.1417379 0.101744734 0.14236286 0.28533718 -0.14799702
-0.014491439 0.065607905 -0.21519616 0.19123682 0.12228174 -0.028924024 0.17879595 0.033536736
-0.2859176 0.2522604 -0.19156954 0.2489897 0.1149414 0.24160056 -0.05127421 -0.18264708
-0.23817319 -0.23269746 0.08916029 -0.26274112 -0.09504813 0.040789127 -0.04594156 -0.03049916
0.17109962 -0.24601148 0.113410436 -0.044982668 -0.102133185 -0.08866207 -0.17611027 -0.03606978
-0.14136966 -0.17005798 -0.0077825785 0.103526026 -0.16061282 0.29080915 -0.28177685 0.10327986
-0.09750569 -0.27075458 -0.09759471 0.18036923 0.3013929 -0.24386989 -0.1881399 0.009840102
0.16337258 0.2798831 0.08249239 0.18338536 0.014107019 0.047480434 0.14627987 0.26239878
0.00038082257 0.24780583 0.11379 -0.13068548 0.19353269 -0.19282745 0.13082512 0.017576393
0.07480447 -0.20378579 -0.018482132 0.024721302 0.12768887 0.24069197 0.24955025 -0.16789536
-0.113152206 0.26380026 -0.15682836 0.08402422 -0.059866436 -0.29379344 0.17056592 -0.09060343
-0.067123644 -0.090081275 0.23623443 -0.093589246 0.10227164 -0.12835947 0.163952 0.024692897
-0.030807137 -0.17272921 0.04211214 0.18646967 0.23144443 -0.010141923 -0.03165224 -0.2606107
0.05257046 -0.045309052 -0.019266566 -0.0126713645 -0.01900974 0.25943726 0.0997743 0.048406363
0.13705587 0.2819755 -0.04350512 -0.19908516 0.10583017 0.11946489 0.20837393 -0.027956557
-0.24651995 0.035191447 -0.105036214 0.0068767667 0.067344695 -0.23899156 -0.102415055 0.2589494
-0.16242702 -0.017140806 0.19202195 -0.038994346 -0.29664817 0.2867769 -0.062316135 -0.07501198
0.0036006868 -0.24821103 0.19430551 0.25789624 -0.09414326 -0.2410023 -0.13653444 -0.012712628
0.19297662 0.08773732 0.032228604 -0.19909547 -0.1481611 -0.19629358 0.017120093 0.19487718
-0.10403396 0.29796293 -0.14477986 -0.25184393 0.075068295 -0.17300484 0.28957808 0.2195664
0.16063683 0.124016136 0.22779731 0.13821396 0.3003909 -0.11223713 0.23333995 0.1997652
-0.1981867 0.045458473 0.081523836 -0.27756506 -0.094739705 -0.036676288 0.079325974 0.16650087
-0.23455435 0.0663549 -0.050558954 0.12949845 0.10399399 -0.022984466 -0.12022178 -0.13160662
-0.1548133 0.21402055 -0.29589579 -0.004659295 -0.13778591 -0.0412817 -0.24515489 -0.065456614
-0.051933303 -0.26736134 0.28976715 0.2548892 -0.05418484 -0.13272469 0.27809352 0.22091025
0.12799457 -0.14493506 -0.15706 -0.13906594 0.22977036 -0.21591179 -0.015474935 -0.050397884
0.03965047 -0.028575383 -0.20963308 -0.20303304 0.25169218 -0.2054789 0.13986409 0.18434136

sequential/dense_1/MatMul f4 [64, 64]
00000000: 0fb4 503e 4e7b ac3d c50f 053e 9776 0b3e
00000010: d89a 3bbd 91fc 103e 9dc2 c0bd 32d6 a43d
00000020: f21a 50be 650c 013e ffff 533e 6547 07be
00000030: 1a5c 46be d021 a4bc 38f5 51bd 04f8 95bd
00000040: 4a3d 4bbe d97f 2e3e a229 f3bd 8237 b6bd
00000050: d2a4 d33d 9f76 403e 82a3 903d f625 bbbd
00000060: 3c6f 12be 83d1 0a3e 397d 473e 3632 06be
00000070: 1840 a8bd 8416 593d bb26 50be 98f6 5ebd
00000080: 3ab1 3ebe 1405 4dbe 2594 1b3e e8fb 2dbd
00000090: 4090 1bbb b67e cabd 62b7 8c3d ded8 34be
000000a0: 40f6 abbb d053 97bc 7034 b03c 6052 623c
000000b0: c0fd 743c 2362 f7bd dc18 d5bd 547d 323d
000000c0: 9f5f 363e 325f ec3d 921e 45be 37e1 063e
000000d0: 4e08 e1bd 4812 14be f8a7 abbd 8003 463c
000000e0: d07c 47be d531 273e 0040 75bc 9f96 133e
000000f0: 8544 033e 9a64 f43d 019a c2bd ce4c f23d
00000100: d87c 2a3e 5ae0 ca3d 78da 103e 190b aa3d
00000110: 9bf9 503b d6d8 963d 7db4 ca3d 1819 703e
00000120: bd70 a63d 2ba2 00be 02ca 75bd 8cba f1bd
00000130: 166c 41be 63e3 18be 7138 093e ae71 2abe
00000140: 1e31 7fbc 6e06 0fbe 387e 49be 56b1 2ebe
00000150: bbda 36be c688 db3d 38c4 cdbc a631 d8bd
00000160: 1045 0cbd 6ac7 ae3d aa2f e53d 8c3c 3fbe
00000170: dfa8 c5bd c817 bc3d ee13 e63d 959b 5abe
00000180: f23a 393e 4e59 403e 6e7b 833d 2ba4 6f3e
00000190: 844a ea3d 9381 163e 5604 4b3d 9133 253b
000001a0: 115f 273e 9a49 ce3d 9f13 803d 995e 3abe
000001b0: 0284 e5bd 2a2c 8c3d a484 2abe 8067 9f3b
000001c0: 7205 023e 5415 7e3d ae12 dc3c e5df d7bd
000001d0: ece9 353e f54f 04be 6ab6 1dbe 976e c03d
000001e0: f00d fc3c 12cd 8b3d 73a6 533e 4046 6cbc
000001f0: 8338 bf3c b6d6 963c a17a de3c 80d5 713d
00000200: d86b c8bc d439 6d3d 8059 b8bc 26ee 0abe
00000210: 8938 c13d 96bd 853d cc84 1ebe f23e 30be
00000220: 8a2b 533e aed6 35be 7f45 a1bc 6059 223e
00000230: dc46 173d ee28 583e 584b d63c ceea d4bc
00000240: 2afb 5cbe 184f 993c d16a 2e3e b521 4fbe
00000250: dff4 2ebe ed3e 5dbe 76f1 04be c3f3 58bd
00000260: 08e2 983c 2ae0 e53d 1bf2 d7bc d23b 80bd
00000270: 0b5e 7fbd 0afc 293e dbb9 323e 0d7f 53be
00000280: c883 54be 66fb 333e 2d99 183e 66fc c43d
00000290: 8f8e 1b3c 0cb1 2dbd 74f2 13ba 4034 2dbe
000002a0: 4e17 af3d 0062 40be 3be1 5bbe ac23 763d
000002b0: 0917 2f3e ac37 38be 1f84 063e 008b cb3c
000002c0: a1d8 813d f894 d7bc 312b 433d 4f11 c9bc
000002d0: 25ed 02be f464 33bd c0a3 bcbc 62fb b03d
000002e0: 5fbe 223e 140f 3d3d cc9d 623d ce80 fd3d
000002f0: 3628 4e3d bdae bc3c 1565 45be 6bc2 d9bc
00000300: 8012 3bbd 1ae1 b23d 6af7 d73d f9b6 2f3e
00000310: ce62 2abe e608 cebd b15b 07be 8254 f33d
00000320: ea70 53be 0be9 013e f580 52be 8f3b 513e
00000330: ed2d 45be e1cf edbd 9f58 40be 6d36 2e3e
00000340: c48c 38bd d264 ec3d d8c3 45be 479c 1b3e
00000350: 1715 41be ea8e 53be 1f54 493e 1abc 943d
00000360: a8cd 29bd cabc e73d 5fa3 113e 3969 4f3e
00000370: 6812 97bc 8400 7d3d eca0 143d e09c dcbc
00000380: 6f0e 0d3e d931 d4bd 6de8 313e 0dd3 28be
00000390: 1c95 1f3d 1406 683d b68a 38be d523 52be
000003a0: 4098 cc3c 3876 9cbd f8a2 9e3c 68d7 74bd
000003b0: a21a f43d 1e74 33be 7178 283e e5f3 0f3e
000003c0: 82a1 803d ec79 4c3d 0a97 59be 3585 cdbd
000003d0: 1544 313e a3f5 2b3e 1dbb 113e fdb2 27be
000003e0: 44f8 3bbd 7d52 3b3e 2887 96bd cbc5 33be
000003f0: ca17 40be fe4d 25be 6e38 00be 6154 debd
0.20381187 0.08421956 0.12994297 0.13619457 -0.045801967 0.14158846 -0.094121195 0.08048667
-0.20322779 0.12602384 0.20703124 -0.13210829 -0.19371071 -0.020035654 -0.05125925 -0.07322696
-0.19847599 0.17040958 -0.11873175 -0.08897306 0.10334171 0.1879525 0.07062437 -0.091381
-0.14300245 0.13556485 0.19481362 -0.13105091 -0.0821535 0.05299999 -0.20327275 -0.05443439
-0.18622294 -0.20021468 0.15193231 -0.042476565 -0.0023737103 -0.098874494 0.06870915 -0.17660853
-0.005247861 -0.018472582 0.02150938 0.013813585 0.014953077 -0.12079265 -0.10405132 0.043576553
0.17809914 0.115415946 -0.19249943 0.1317185 -0.10987912 -0.14460099 -0.08381647 0.012085795
-0.19481206 0.16327603 -0.014968872 0.14412926 0.12819107 0.11933251 -0.0950203 0.118310556
0.16649187 0.09906073 0.14145839 0.08302898 0.0031887058 0.07365577 0.09897707 0.23447073
0.08126972 -0.12561862 -0.060007103 -0.11803159 -0.18888888 -0.14930491 0.13400437 -0.16644928
-0.015575675 -0.13967296 -0.19677055 -0.17059836 -0.17856877 0.10719447 -0.025117978 -0.10556345
-0.03424555 0.08534129 0.11190732 -0.1867544 -0.0965135 0.091842234 0.1123427 -0.21348412
0.18088892 0.18784067 0.06420027 0.23402469 0.11439994 0.14697866 0.049564682 0.0025207738
0.16344859 0.10072632 0.062537424 -0.18200149 -0.11206819 0.06844361 -0.16652161 0.004864633
0.1269739 0.06203206 0.026864376 -0.10540751 0.17765015 -0.12921126 -0.15401617 0.09396093
0.030768365 0.068262234 0.20668964 -0.014421046 0.023342377 0.018412929 0.027158083 0.0590415
-0.024465486 0.057916477 -0.022503614 -0.13567409 0.09434611 0.06530301 -0.15480345 -0.17211512
0.20622078 -0.17757675 -0.019686459 0.15854406 0.03693281 0.21109363 0.026158974 -0.02599087
-0.21580186 0.018714473 0.17032935 -0.20227702 -0.17085598 -0.21606036 -0.12982735 -0.052966844
0.018662468 0.112243965 -0.026360562 -0.0626141 -0.062345546 0.16600052 0.1745371 -0.20653935
-0.20753396 0.1757637 0.14902182 0.09618454 0.009494438 -0.042405173 -0.00056437333 -0.16914463
0.08549367 -0.18787384 -0.21472637 0.060092613 0.17098631 -0.17989987 0.13136338 0.024846554
0.06340147 -0.026316151 0.047648612 -0.024544386 -0.12785776 -0.04379745 -0.0230273 0.086416975
0.15892933 0.046156958 0.055326268 0.12378083 0.050331317 0.02303254 -0.19276841 -0.026581964
-0.04567194 0.08734341 0.10545237 0.17159642 -0.16639253 -0.10060291 -0.13218571 0.11881353
-0.20648542 0.12686555 -0.20557006 0.20432876 -0.192558 -0.116119154 -0.18783806 0.1701295
-0.04505612 0.115426674 -0.1931299 0.15196334 -0.18855701 -0.20659986 0.19660996 0.0726244
-0.041455895 0.113153055 0.14222477 0.20254983 -0.018441394 0.06176807 0.03628628 -0.026930273
0.13775037 -0.1036107 0.1737382 -0.1648676 0.03896056 0.05664642 -0.18021664 -0.20521481
0.024974942 -0.07639736 0.019364819 -0.05977574 0.11919142 -0.17524764 0.16452195 0.14057882
0.06280805 0.04992096 -0.21249023 -0.10035173 0.17311127 0.16792922 0.14231534 -0.16376872
-0.04589106 0.18293186 -0.07349998 -0.17555921 -0.18759075 -0.16143033 -0.12521526 -0.10855938

sequential/dense_2/MatMul f4 [32, 64]
00000000: 8093 5e3e 3cf8 0fbe e445 2c3e c01b 5b3c
00000010: 5448 24be c025 693d 0061 68be 70d4 e3bd
00000020: c807 5ebe e07b e93d f487 05be 80ab 66bc
00000030: f03a 04be c4b7 513e 60ce a1bd 205e bcbc
00000040: 409c 1b3e 381d 3ebe a09f 6e3e 50ec 35bd
00000050: c0fa 38be 5061 153e f464 1dbe d035 79bd
00000060: 20bb cebc 606c 0bbe cc54 353e 083e 60be
00000070: bc0c 0b3e a057 e7bc 887b f2bd b063 76bd
00000080: 80a8 f43d d028 ac3d 5047 2ebe b09c 4c3e
00000090: 201e 9e3d ec15 7abe 2077 33bd 6801 0fbe
000000a0: 780a f73d b801 49be d8f5 873d 18fd 603e
000000b0: e03e 62be b00e 273e f86a d53d 7864 d5bd
000000c0: d40e 213e 7491 7bbe 1899 fabd e040 f33d
000000d0: f8f2 dc3d 9485 4ebe f09e 7e3e 5c3e 113e
000000e0: ec71 35be 80c8 69bc 902d adbd 248b 483e
000000f0: 7042 e4bd 88dd 1abe a067 063e 30a6 bb3d
00000100: 803a 043e 10d9 563e a8de f03d e0ae 66be
00000110: 9c2b 07be 7cdb 6bbe 989c c2bd 5428 61be
00000120: 10ac d23d 446b 7d3e 68bb ddbd 90ab eebd
00000130: 9844 0d3e 4026 7a3c 40f6 153d b090 9cbd
00000140: 6455 75be d0e0 9b3d 805e 1abd b895 a1bd
00000150: e0a2 4fbd 40b7 023c 3065 7d3e 3cd4 3bbe
00000160: d821 f03d 504b 6abe 78ed c7bd 4055 92bc
00000170: 5098 023e 78c8 31be a0f4 40be e81b e93d
00000180: 4045 633e 2825 03be 280f 96bd 0019 82bc
00000190: 3897 473e 7067 623e 5c3c 0cbe 18e7 ecbd
000001a0: 3035 5b3d c803 1abe 40c2 e9bc d0dd 91bd
000001b0: 3000 a7bd b44f 373e 80de 2a3d e0cb 64bd
000001c0: b0a2 c7bd 84fd 213e 80d4 dc3b 64ff 033e
000001d0: 5ca0 4e3e c0aa 923c f035 11bd 1c68 5d3e
000001e0: d0a1 783e 0072 c53c fcf0 78be c864 273e
000001f0: b0aa 063e 080f e73d 1847 153e 200f cfbc
00000200: dcc6 4dbe 0850 40be 80d6 f8bd 80a0 e63c
00000210: 6049 d63c 7c3a 7dbe c0ad d73d 047a 223e
00000220: 60c5 003e 9c8f 633e 940d 02be 002b 223e
00000230: d020 3b3d 9425 7cbe d8ad bebd c0cd 27bd
00000240: b8d1 a73d 3007 01bd b8af 193e 5cb1 22be
00000250: 8059 1ebd 7803 fabd 60ea 643d f04f 40bd
00000260: 046d 5a3e 78ec 62be 2499 17be a0a2 94bc
00000270: e4a9 67be 0422 2dbe 9877 98bd 1c71 2abe
00000280: 581b 46be 2073 e2bd 30c3 363e 6041 22bd
00000290: 8079 393c 9cf4 09be 3056 75bd 60f7 983c
000002a0: 5037 6d3e c4ec 32be 48eb 48be 10ae 22bd
000002b0: 4022 56bd 20a8 373d 1846 3cbe 046b 203e
000002c0: 686f 573e b437 163e b890 8a3d 8061 8abb
000002d0: 0856 cfbd f040 f73d 7037 47be 7075 c5bd
000002e0: 70f5 0d3e 9034 80bd 9487 57be f0de 303d
000002f0: 08a9 cf3d b0d9 3fbd 687c 25be 2cce 593e
00000300: ec56 7cbe 050d 48be d571 efbd e007 1dbd
00000310: a8c7 27be 9190 a3bd 84b0 4cbe 514c 73bd
00000320: 009e a13d 401f 973d f20d 173e c25d 9ebd
00000330: f0e5 1fbd 2b61 e8bd 2dd9 c93d d469 123e
00000340: 5816 063e fed7 b0bc 947d 713e 61f5 2c3e
00000350: 90f7 c5bd bdfc 1abe 806b 513d 69f6 3c3e
00000360: a919 083d 0258 92bb f31d 873d cf95 043e
00000370: 49b5 53be e5a8 46bd 6481 493e 73d7 fe3d
00000380: d6d1 59be 0216 7dbe fc3e 75be 10d3 88bd
00000390: d910 3abe b516 efbd f220 313d 4060 bb3d
000003a0: 94a9 3d3e 6161 cc3d e316 0f3c e48e a0bd
000003b0: 3677 2abe 0b71 353e 8ee4 643e 045c 5abe
000003c0: 9289 93bd 883e 58be 42d2 01be 1055 7a3d
000003d0: cb79 1b3e b807 72be 90b1 92bd c0ae 2d3d
000003e0: 5026 713d 9d9c cf3d 6cf8 5c3e 45b5 4cbd
000003f0: 34d0 433e 9078 8a3d 04ad 743e 7b82 113d
0.21735954 -0.14059538 0.16823536 0.013373315 -0.16043216 0.056920767 -0.22693253 -0.111245036
-0.21682656 0.114005804 -0.13040143 -0.014078975 -0.12913108 0.20480257 -0.07900691 -0.022994101
0.15196323 -0.18565834 0.2330308 -0.04441482 -0.18064404 0.14587903 -0.15370542 -0.060842335
-0.025235713 -0.1361556 0.17708129 -0.21898663 0.13579077 -0.028240025 -0.11839968 -0.060153663
0.11946201 0.08406222 -0.17019391 0.19981647 0.0772059 -0.24422425 -0.04381478 -0.1396538
0.12062544 -0.19629562 0.06638688 0.21971548 -0.22094297 0.16314197 0.10420793 -0.104195535
0.15728313 -0.24567205 -0.122362316 0.11877608 0.1078853 -0.20168144 0.24865317 0.14183944
-0.17719239 -0.014268994 -0.08455956 0.19584328 -0.111454844 -0.1512357 0.13125467 0.09162557
0.12912941 0.2098124 0.11761218 -0.22527647 -0.1320023 -0.23032945 -0.09502524 -0.2198804
0.102867246 0.2474795 -0.108267605 -0.11653817 0.13795698 0.015267909 0.036611795 -0.076447845
-0.23958355 0.07611239 -0.03768778 -0.07889885 -0.05069244 0.0079782605 0.24745631 -0.1834268
0.11725205 -0.22880292 -0.097620904 -0.017862916 0.12753415 -0.17361629 -0.18843317 0.11382276
0.22194386 -0.12807143 -0.073271096 -0.015881062 0.19491279 0.22109771 -0.136949 -0.11567515
0.05351752 -0.15040505 -0.028535008 -0.071223855 -0.08154333 0.17901498 0.0417161 -0.055858493
-0.09747827 0.15819365 0.006739199 0.12890393 0.2017836 0.017903686 -0.03545183 0.21621746
0.24280477 0.024102211 -0.24310678 0.16347039 0.1315105 0.11282164 0.14577901 -0.025275767
-0.2009539 -0.1878053 -0.12150288 0.028152704 0.026158035 -0.24729341 0.10531187 0.15866858
0.12575293 0.22222751 -0.12700492 0.15836716 0.04568559 -0.2462371 -0.09310502 -0.040967703
0.081942976 -0.031500995 0.15008438 -0.1588797 -0.038659573 -0.12207693 0.05588758 -0.046951234
0.21330649 -0.22160518 -0.14804512 -0.018143952 -0.22623402 -0.16907507 -0.07444686 -0.1664471
-0.19346368 -0.110571146 0.17847896 -0.039613128 0.011320472 -0.13472217 -0.059896648 0.018672645
0.23165631 -0.17473131 -0.19621003 -0.03971678 -0.052278757 0.04483807 -0.18386114 0.15665823
0.21038592 0.14669687 0.06765884 -0.0042230487 -0.10123831 0.12072933 -0.19454741 -0.0964154
0.13863158 -0.062600255 -0.21047813 0.04318136 0.10139662 -0.046838462 -0.16160738 0.21270055
-0.24642533 -0.19536217 -0.116916336 -0.03833759 -0.16384757 -0.07986558 -0.1998921 -0.059398953
0.07891464 0.07379007 0.14751413 -0.07732727 -0.039037645 -0.11346658 0.09855876 0.14298183
0.13094461 -0.021587368 0.2358306 0.1689048 -0.096663594 -0.15135475 0.05112791 0.18453373
0.033227596 -0.0044660578 0.06597509 0.12947772 -0.20674624 -0.048500914 0.19678265 0.124434374
-0.21271452 -0.24715427 -0.23949808 -0.06680882 -0.1817049 -0.11674253 0.04324431 0.091492176
0.1852172 0.09979511 0.008733484 -0.07839754 -0.16647038 0.17718904 0.22352812 -0.21324164
-0.07203974 -0.21117604 -0.12677863 0.06111628 0.15183179 -0.23635757 -0.071627736 0.042402983
0.05887443 0.101372935 0.2157914 -0.04997756 0.19122392 0.06761277 0.23894125 0.035524826

sequential/dense_3/MatMul f4 [3, 32]
00000000: 7691 3a3e fd60 aabe ea71 593e 78fa aabe
00000010: cbf5 8abe 8701 cc3e 223f 753e ab53 76be
00000020: 2d45 13be 1bca de3e 0005 5bbd a5d6 7d3e
00000030: 1835 3c3e 2e15 a93e 87bb 3cbe cd8e 983e
00000040: f069 da3c a3bb 8f3e 0597 c8be 4005 24bd
00000050: 84a4 4abe 8317 bdbe 0591 8b3e 2e34 0fbf
00000060: 9a9c a0be 4992 103d 9a2b 98be 1270 a83d
00000070: b072 4b3d 8386 2fbe ab1d c63e ae0b c4be
00000080: a610 583e 1ad4 713e baf6 093e b655 84be
00000090: 3259 943e 00ee a4be b926 a3be 8de5 bbbe
000000a0: fe90 cabe 57c3 403e 6651 383e 9f5c c9be
000000b0: 60c6 6bbe 69de 513e 15d4 87be 93ad 61be
000000c0: 2d82 53be 248b 95be ce2b 88be f203 85be
000000d0: bc15 56bd 7d1e 6c3e b495 ed3d 498f 173e
000000e0: 65db a53e 1ecf 843d 83f3 b23e 8bb9 9c3e
000000f0: 49bf d3be 215c b9be 20f7 b6be d8c7 a9be
00000100: 29fe c4be 6d4b 6bbe 7f2c a53e e4bd 2f3e
00000110: b997 8e3e fc6b fabd 1a13 173e 5746 923e
00000120: 9d4c da3c 7a3b 763e d80a 913d ff34 8cbd
00000130: b4d3 55be ad87 c43c 4e35 9bbe 50ab dabd
00000140: c056 b8bd 806a 883b 5e6f 74be a2d5 f13d
00000150: e4be 7cbe 9f29 eebe feda abbe 97de 363e
00000160: aef4 57be b632 06be 3933 7fbe 5c19 303e
00000170: 45ac 703e 9361 363e 5dd0 5b3d 14b4 92be
0.18219551 -0.3327712 0.21234861 -0.33394217 -0.2714065 0.39844915 0.23949865 -0.24055354
-0.14381857 0.4351357 -0.053471565 0.24788912 0.18379629 0.3302397 -0.18430911 0.29796448
0.026661843 0.28072843 -0.3917772 -0.04004407 -0.1978932 -0.36932 0.2725908 -0.55938995
-0.31369478 0.03529576 -0.29720765 0.08224501 0.04966992 -0.17141156 0.3869451 -0.3829016
0.21100101 0.23616067 0.13473025 -0.25846642 0.289743 -0.3221283 -0.3186548 -0.3669857
-0.39563745 0.18824516 0.17999801 -0.39328477 -0.23024893 0.20494999 -0.26528993 -0.2203887
-0.20655127 -0.29207718 -0.2659592 -0.25979573 -0.05226682 0.23058505 0.11600819 0.14800753
0.32393947 0.06484817 0.3495141 0.30610308 -0.41356876 -0.362031 -0.35735416 -0.3316028
-0.3847516 -0.22977991 0.3226051 0.17162281 0.2785013 -0.12227628 0.1475338 0.2856929
0.02664786 0.24046126 0.070821464 -0.06846046 -0.2088154 0.023990477 -0.30314106 -0.106772065
-0.09000921 0.0041630864 -0.23870608 0.11808325 -0.24682194 -0.4651613 -0.33565515 0.17858349
-0.21089432 -0.13105282 -0.24921884 0.17197174 0.23503216 0.17810659 0.053665508 -0.28653014
