app/src/main/ml/model_v3.tflite (tflite, 47060 bytes, 8 tensors)

sequential/dense_1/BiasAdd/ReadVariableOp f4 [64]
00000000: 713b ce3d fd80 00bd 3372 ee3d 16a4 0abd
00000010: 638f 1a3b 4359 ccbc bc20 3abc f467 81bc
00000020: 195b f13d b208 fdbb 0724 4dbc 30c8 183e
00000030: 34c9 a63d 733e 003d 3007 2d3d 5890 b23c
00000040: 77b0 773d ded3 4f3d 8222 013e 2287 073e
00000050: 0000 0000 d062 86bc a43e d5bc 31dc a0bc
00000060: cc15 ebbc 0472 58bc a6c9 88bc 90d1 2ebc
00000070: 2a75 1b3b 3731 43bc dec3 cbbb 3eeb 9cbc
00000080: 7642 5e3d 0959 babc 3ce1 36bc 563c c9bc
00000090: ae9e fd3d bef1 5c3b 7194 4b3d 02e9 a23c
000000a0: 5502 9b3d 7f40 f63d bd0c b63d 59e2 76bc
000000b0: fb2a 28bc 0f58 42bd 4f64 3fbc e1f2 0cbd
000000c0: 5361 2e3d 4076 663d fc13 d03d 2e04 0e3e
000000d0: 0a60 85bc 6d52 4bbc c5a4 a8ba 7247 cc3d
000000e0: dac5 56bc 5e78 c9bb 38f9 ad3d 1684 7abb
000000f0: 58e2 7dbc 40c5 e5bb cfe8 90bc 2a6a 63bd
0.10069931 -0.031373013 0.116428755 -0.03384789 0.0023584 -0.024944907 -0.011360344 -0.015796639
0.117849536 -0.007721984 -0.012520797 0.14920115 0.08143845 0.031309556 0.042243183 0.021797344
0.060471024 0.05073916 0.1261082 0.13235143 0.0 -0.01640454 -0.026030846 -0.019636245
-0.028696917 -0.013210777 -0.016697716 -0.010670081 0.0023720958 -0.011913589 -0.0062184175 -0.019155141
0.0542626 -0.022747533 -0.0111620985 -0.024564903 0.123837814 0.0033713426 0.04970211 0.019886497
0.07568804 0.120240204 0.088891484 -0.015068614 -0.010264154 -0.04744726 -0.01168163 -0.034411315
0.042573284 0.056265116 0.10160062 0.13868782 -0.016281147 -0.012409789 -0.0012866488 0.099745646
-0.013108695 -0.006148382 0.084948 -0.0038225702 -0.015495859 -0.0070120394 -0.017689137 -0.055521168

sequential/dense_2/BiasAdd/ReadVariableOp f4 [32]
00000000: bbe9 ba3d da7a debc 011e 5a3b 836e 563d
00000010: 924d 473b 8c02 a83d 9a87 89bc 8d0a 7f3b
00000020: db19 ac3d 490c 23bc d4d0 813d 1fe8 413c
00000030: 0000 0000 f54b 8dbc 4374 423d aeea ea3c
00000040: acbd 08bd 4923 80bc 5c13 e13d eeab bd3d
00000050: a505 0e3d f0bd a13d 7e9c d13c e636 d5bb
00000060: cd3b 55bc c5b7 aa3d da6c 34bd e184 713d
00000070: ae01 5ebc f6a9 80bc 1602 2e3d 0e8f 413d
0.09126612 -0.02715819 0.0033282044 0.052351486 0.0030411226 0.08203611 -0.016788293 0.00389162
0.08403369 -0.0099516595 0.06338659 0.011835127 0.0 -0.017248133 0.047474157 0.028676357
-0.03338401 -0.015641825 0.10990021 0.092613086 0.03467335 0.07897556 0.025587317 -0.0065067885
-0.013014746 0.083358325 -0.04404912 0.058964614 -0.013550205 -0.015706044 0.042482458 0.04725557

sequential/dense_3/BiasAdd/ReadVariableOp f4 [5]
00000000: f33f 48bc c1c7 20bd 1361 993d e2a0 95bc
00000010: b191 233b
-0.012222278 -0.039253 0.074892186 -0.018265191 0.0024958665

sequential/dense/BiasAdd/ReadVariableOp f4 [128]
00000000: 0e8a fa3d 4b9f f1bc d73c f43d 1125 6ebb
00000010: f1f4 1e3e 6251 0dbd c96e 5f3c ce8c ed3d
00000020: d522 10bd 990a 40bd c2e6 0ebd e916 96bc
00000030: dded b93c e931 c6bc 2c55 db3d 45fa bc3d
00000040: 7607 643d f98b 9b3d 8fde ab3d b610 b6bc
00000050: f35d ef3c a3ba d13d 380e 3f3c 1144 c3bc
00000060: 8ec8 1bbc e7f9 d13d a860 bc3a 64ff 10bc
00000070: 1657 88bd 2765 423d 5cdc 0abc 0df2 063e
00000080: 9743 283e 07a9 80bb ab72 94bc 9d64 64bc
00000090: a418 013e 212a 89bc 49aa d8bc 30d0 c6bc
000000a0: 9837 8abc 1c1a c0bc 0249 ff3b 7919 f3bc
000000b0: 72b2 ab3d 7a7b 943c b03d b43c 4cd3 203e
000000c0: ab0c 2b3e 088d 91bc 22db 933d c78b d13d
000000d0: 8239 0a3e 27bc 703d 3072 7bbc bd50 ecbc
000000e0: e230 98bc 2bd9 fe3d 7ecf 183e b3cf 18bc
000000f0: 8a8a 233e 876b 43bc 5028 da3d 86da 3b3d
00000100: d2c5 dbbc ab9a 75bc 31a3 813d a8cc 50bd
00000110: 4f1f 1dbc 9092 b6bc 9286 5abd 6f03 11bc
00000120: 5bc5 91bb 043f 4b3e 981b 1ebd 5ec9 7ebd
00000130: 89e4 09bd 07be d33d b48a dcbc 0974 bf3d
00000140: db8b 003c b4cc 7f3c 5af7 c1bc d608 87bd
00000150: 268b 003e 9e55 053e 63d2 b93d dd99 b43d
00000160: f0fc f7bc 82ca 4b3d a07b 4cbd 540d 00bd
00000170: 3fb2 d63d db46 b13d bf4d 1a3e cdae 27bc
00000180: 818f efbc b62c ec3d c859 613d 032d c03c
00000190: 86e7 39bd e0df 8b3d bd0e 763d 356c 953c
000001a0: aa99 0d3e 5588 3a3d a6d5 c43d 1d14 89bc
000001b0: b11b 49bc 5b36 de3d 703d 653d 52ea bf3d
000001c0: 4772 e23d 4d20 023e 5545 eabc 8d59 b1bc
000001d0: 3583 283e 319a b2bc 7b52 5cbd 7168 0c3d
000001e0: 8594 ca3d 3f9c fc3d 8c15 5ebd 2572 083e
000001f0: 2843 673c 7cfd 93bc dbdc cd3d 7bb9 373e
0.12233363 -0.029494902 0.11925667 -0.0036338011 0.15523125 -0.03450144 0.013637253 0.11599122
-0.03518947 -0.046885107 -0.034888037 -0.018321471 0.02269643 -0.02419372 0.107096046 0.092274226
0.055671178 0.07595057 0.08392059 -0.022224765 0.029219603 0.10240676 0.011661105 -0.023836168
-0.009508265 0.10252743 0.0014372068 -0.008849952 -0.06657235 0.047459748 -0.008475389 0.13178273
0.16432033 -0.0039263996 -0.018121084 -0.013940004 0.12607056 -0.016743721 -0.026448386 -0.024269193
-0.016872212 -0.02344995 0.0077906856 -0.029675232 0.08383645 0.018125284 0.022002071 0.15705603
0.16704051 -0.017767444 0.07219531 0.102317385 0.134985 0.058773186 -0.015347049 -0.028847093
-0.018577997 0.12443765 0.14922902 -0.009326863 0.15970817 -0.011927492 0.1065222 0.045862697
-0.026827727 -0.014990489 0.063299544 -0.050976425 -0.009589984 -0.022286683 -0.053350993 -0.008850916
-0.0044485754 0.19848257 -0.038600534 -0.062203757 -0.033665214 0.10338979 -0.026921608 0.09348304
0.007845844 0.01561277 -0.023677517 -0.06593482 0.12553081 0.13020942 0.09073331 0.088184096
-0.030271977 0.049753673 -0.049922585 -0.03126271 0.104832165 0.08656093 0.1506872 -0.010234547
-0.029243233 0.115319654 0.055017263 0.023458963 -0.045386814 0.0682981 0.06007265 0.018240074
0.1382815 0.045540173 0.09611063 -0.016733224 -0.012274669 0.10850211 0.055966794 0.09370865
0.11056953 0.12707634 -0.028597513 -0.021649146 0.16456302 -0.02180204 -0.053789597 0.03427929
0.09891609 0.12334489 -0.054219767 0.13324793 0.014115132 -0.018065207 0.100518905 0.17941849

sequential/dense/MatMul f4 [128, 4]
00000000: d65e aa3d e7a6 bebd c6aa 4a3e 8a81 e13d
00000010: 9d33 1b3c adc7 36be 0853 b93a 9737 47be
00000020: 2f19 ca3d cd67 123d dce2 d73d 8893 923e
00000030: e886 283d 19b0 8cbd 43c4 373e 548c f0bc
00000040: a7ed 0d3e 60ca 09be 1f5a 633e 081f 873e
00000050: 755c d4bb 4c17 3c3e 4091 8c3d b811 0cbe
00000060: 7a8d a43d 5855 973c 6b9a 963d 7884 313c
00000070: 11a6 f8bd 5236 5e3e 2d69 fc3d 9492 a43d
00000080: e972 fa3c aff8 0b3e 26f1 7e3c 4248 983c
00000090: 8708 ee3d 0be3 43bb a9be a9bd 078e 293e
000000a0: 70b3 3d3e ce95 d33d dc3a 283e 2825 abbd
000000b0: 2ff3 84bd 96be 393e b29c 88bd ebf2 51be
000000c0: 453b 133e 9e92 503e b44d 17be ff12 21bd
000000d0: d029 e7bd 9240 913d 13f9 503c 0ae3 013e
000000e0: c39a e43c 57fa 393e 426e a93d b773 383e
000000f0: a709 05be 099e 3ebe 876b 683e 5330 81bd
00000100: d36d f33c 51e2 f3bd 6c6c d3bd fcea 94bc
00000110: 205a f93d 92d2 34bd 469f 20be 7f81 bf3b
00000120: 0a57 f63d 12f8 963c fa96 483e 8a5a 833d
00000130: 2ae9 383e 6037 56be deaf 163e bc35 a7bd
00000140: 6431 eabd 293e 27be cb62 da3d 31bc 5dbe
00000150: 7c61 c1bd 0393 043e a29c 6b3e 8bbc a5bc
00000160: d908 22be 2270 39be 72d0 15be 7cc2 043e
00000170: 53f6 973d fb7d f0bd af0e dbbc b476 c83c
00000180: 4436 9b3d 570e 69bc cef9 1b3d 1a2d 0fbe
00000190: acb5 82be 0db0 06be 330f 30be f2c0 d33d
000001a0: cdef 69bd 6a52 4c3e 96d8 403e cdd8 a9bd
000001b0: 269a 953d cc62 6cbd da4e 12be 5e08 533d
000001c0: b650 b43d 9a6f 223e c7c3 ebbd b3f1 84bd
000001d0: 60ce 3f3e e2ca f2bd 680d b9bb 2d79 023e
000001e0: c06b 373d ca7d 08be 3162 b2bd 8714 20bd
000001f0: 2ade 9ebc 24ac 87bd b47b 52be d628 113e
00000200: bd89 f3bd 0a62 f13d 6d54 94bc 4882 b63d
00000210: 39ca 1c3e 6532 863e bf82 8e3d 245f cb3d
00000220: 8fb4 2f3e e01e 82be d49a 463c 9898 8e3d
00000230: 3d7f 27be 5705 833d a63a 35be 71a5 4c3e
00000240: 7d80 ff3d ec4d a63d e07b 223e bcab 293e
00000250: 33a0 8c3d cd41 48be 1b26 47be 1e5f 7abd
00000260: 9402 263e aaa7 16be 5b76 08be 2149 403e
00000270: b9cd 2dbe d362 053e 2e26 1ebd ebb8 ff3d
00000280: f090 a7bd 9f94 1bbe 0ffd 5fbd 16ff 5abe
00000290: 6049 d93d fa22 a7bc 6c20 383e 6f8e 90bd
000002a0: 4231 db3d 0b38 bdbd 0156 ad3d 02cf 3cbd
000002b0: 15eb 253e 9c14 213d 19ed 3fbe 305d fb3d
000002c0: a197 ed3d 7dd6 4dbe 6f43 50be 37a2 4dbc
000002d0: 7c82 f9bd 0c1e 2bbe 1bc0 263e 39f3 3fbe
000002e0: b7e5 313e cee0 8abc bfde 96bd f772 403d
000002f0: 31d5 41bd 302c 4d3d f065 53be 04f5 bc3d
00000300: 2679 283d 1493 2ebd b9c2 fcbd eda8 3d3e
00000310: 2800 2b3e 0fe1 b5bd adf4 113e 0ec0 9dbd
00000320: 2a4c 1bbd 454b c43e 38f0 f93d 0c5b 4bbd
00000330: 646c f6bc 431a fbbd 37b1 70be 28da f2bc
00000340: a132 143d 8df7 31be bf28 063e 1cb2 083e
00000350: 2770 403e 17be 2e3d 86af 02be 8739 ca3d
00000360: e4b5 e4bd 8b67 3b3e d873 7ebd d318 c1bd
00000370: 983a 033e 36f9 bf3d f0d5 d2bd d35c 56bd
00000380: 8b18 353e e449 41be 6e7f b23c 18ce 203d
00000390: 46f8 8fba 57d5 7f3d eab3 803e 717c 883e
000003a0: e260 073d 5fcd 0abd b31f 56be 21d9 1e3e
000003b0: 4d46 10be e46a 063d e844 9e3d 811c 133d
000003c0: 73e0 16be 9ee6 1a3e 79dd 653e 81e3 393e
000003d0: 20ed ef3d 8bd2 bb3d 84a4 51bd f93c 533e
000003e0: 2ece 70be db81 7bbd bd58 58be cb3b b33d
000003f0: a693 cb3d f33c 4bbe 1ee8 27be b4f0 6d3c
0.0831887 -0.09309178 0.19791707 0.11011036 0.009472755 -0.17849608 0.0014139125 -0.194548
0.09868085 0.035743523 0.10541317 0.28628182 0.04114428 -0.068695255 0.17945962 -0.029363789
0.13860188 -0.13456106 0.22202347 0.26390862 -0.0064807483 0.18368262 0.06863642 -0.13678634
0.08034797 0.018473312 0.07353672 0.010834806 -0.1214105 0.21700409 0.12324748 0.0803577
0.030572372 0.13669084 0.015560424 0.018589143 0.1162272 -0.0029889967 -0.08288319 0.16558085
0.18525481 0.10331307 0.16428703 -0.08356696 -0.06491696 0.18139109 -0.06670512 -0.20502822
0.14378078 0.2036843 -0.14775735 -0.039324757 -0.11287272 0.07092394 0.012754696 0.12684265
0.027905827 0.18161903 0.08272983 0.18012892 -0.12991963 -0.18614973 0.22697268 -0.06308045
0.029715454 -0.11908401 -0.10323414 -0.018178456 0.12175393 -0.044146128 -0.15685758 0.0058442946
0.1202832 0.018428836 0.19588843 0.06413753 0.18057695 -0.20919561 0.14715526 -0.08164546
-0.11435202 -0.16332306 0.106633745 -0.2165382 -0.09442422 0.12946706 0.2300897 -0.020231506
-0.15823688 -0.18109182 -0.14630297 0.12964815 0.074200295 -0.11742779 -0.0267404 0.024470665
0.0757871 -0.01422461 0.03808003 -0.13982049 -0.2552923 -0.13153096 -0.17193298 0.10339536
-0.057113457 0.19953313 0.18832621 -0.082933046 0.07304792 -0.057711408 -0.14287892 0.05152165
0.08804457 0.15862885 -0.11511951 -0.06491413 0.1873107 -0.11855103 -0.00564735 0.12741537
0.044780493 -0.13329235 -0.08710135 -0.039082076 -0.019393045 -0.0662463 -0.20555001 0.14175734
-0.11891506 0.117862776 -0.018106664 0.08911568 0.15311517 0.26210323 0.069585316 0.09930256
0.17158721 -0.2541418 0.012121875 0.06962699 -0.16357131 0.06397503 -0.17698154 0.19984986
0.12475679 0.08120331 0.15867567 0.16569418 0.06866493 -0.19556351 -0.1944813 -0.061125867
0.16211921 -0.14712396 -0.13326399 0.18777896 -0.16973008 0.1302598 -0.03861063 0.12486442
-0.081819415 -0.15193413 -0.054684695 -0.2138637 0.10609698 -0.02040242 0.17981118 -0.07058417
0.107027546 -0.09239205 0.084636696 -0.046095856 0.16202958 0.039326295 -0.1874279 0.122736335
0.116011865 -0.20101352 -0.20338224 -0.012550882 -0.12183091 -0.1671068 0.1628422 -0.18745126
0.17372786 -0.016952898 -0.07366704 0.04698464 -0.047322456 0.05009097 -0.20644355 0.092264205
0.04113116 -0.042620733 -0.12341828 0.18521471 0.16699278 -0.08880817 0.14253493 -0.07702647
-0.037914433 0.38338676 0.12204021 -0.049647376 -0.030080982 -0.122608684 -0.23505102 -0.02964504
0.036181096 -0.1737959 0.13101481 0.13349193 0.18792783 0.042661753 -0.1276227 0.09874254
-0.111675054 0.18301217 -0.062122196 -0.09428563 0.1281532 0.09373705 -0.102947116 -0.052334618
0.17685144 -0.18875843 0.021789279 0.039259046 -0.0010984025 0.062459316 0.25137264 0.2665744
0.03305138 -0.033887263 -0.2091053 0.15512516 -0.14089318 0.032816783 0.077279866 0.035915855
-0.14734058 0.15127036 0.22447766 0.18153192 0.1171515 0.09171017 -0.051182285 0.20628728
-0.23516151 -0.061403137 -0.21127601 0.08751639 0.09940271 -0.19847469 -0.1639714 0.01452272

sequential/dense_1/MatMul f4 [64, 128]
00000000: c7f9 943d 0aa9 20be 91dd b7bd 2acb 613c
00000010: f32d 2e3e e36e 9d3d 5e77 103e 7444 b9bd
00000020: 1ec4 2bbd 2e43 0cbe f4ec 273e c559 973d
00000030: bcbc 7c3d 2506 0abe b439 dbbd 5c12 653d
00000040: 087e 8dbd 8140 f0b9 009c cdbd 482b 35be
00000050: ad99 92bc b3e9 e6bd 1887 c5bd 952f edbd
00000060: 4281 e53d a751 4b3e f116 223d 9e61 23be
00000070: c5a0 34be 6e4d a0bd 7270 87bd e0c0 0dbc
00000080: 1259 703e c237 4c3c cc6d 453c e756 dc3d
00000090: 67ce 17bd d247 debd 4ab0 c53c c87e 04bd
000000a0: 0a34 a3bd 9a3a 063e 7a7c 3abe dbfd ccbc
000000b0: 90e9 103d 90f4 223e 1713 eebd c88c 143e
000000c0: 8682 4d3e febb d9bd 73be bcbd d1ae 203e
000000d0: fb11 803e cc5f 023e 386f abbd 3d65 4cbd
000000e0: 0449 6ebd e092 373e c73d 263e 3398 f03d
000000f0: 2032 1e3e c20f 5abd 6f0c 573e 7ad2 4d3e
00000100: 69e0 a4bd d118 76bd 1b04 933c 3033 86bd
00000110: f0db 51bd eeba 273e 7b31 15be 123f e23c
00000120: 1333 253e afa2 243e e6f2 f5bd 2407 01be
00000130: ba2c 8a3d 2455 263e dc3c 9fbd 186b 093e
00000140: f0a0 853c 67c1 e8bd 3289 773d 2c45 a73a
00000150: 3396 e33d 031f 283e 031b 9d3d d7b1 2f3e
00000160: a3c7 463d 335b 74bc 1552 6a3c d9bc c2bd
00000170: 8dae d1bd a538 99bd 66d3 5d3d 9126 bebb
00000180: c249 143d 3792 393d cb35 2d3e e0b1 2f3d
00000190: b2a2 05be 6380 043d a83a 42bc a483 8e3c
000001a0: e0c0 a4b9 134c 4c3e 0889 6ebd ce5f 08bd
000001b0: cef2 9e3d d772 893d cba4 163e 89ee c63d
000001c0: 6c92 233e ac9c 2f3d 22a6 ab3d 89ed 093d
000001d0: 0703 2d3e eb0f 95bd 04d3 bebb f670 33bd
000001e0: 8a0b afbc 6346 e13d 04ea 06be 6e67 103e
000001f0: 8d77 173e 7e4d 1abd ee07 833d a3e6 5b3e
00000200: 9743 313e 4b9d 23be 1234 1ebd 931b 35be
00000210: bcf3 7fbc 8883 c3bc d787 89bd dcd8 ffbb
00000220: fcda e4bd 88ac 31bd 8417 283e d8b8 cdbd
00000230: 2d22 f13d 2ca7 1c3e a95f bc3c f363 1dbc
00000240: 65c9 d43d 8d73 60bd c438 75bc 12fe 8d3d
00000250: 5283 1a3e fa4e ac3d 24b9 33be e806 f03d
00000260: 8e8b 0a3e e889 533d ff0d 0abe 591f 093e
00000270: 9171 20bd 07ba ab3d 70c3 d6bd 7cca c83d
00000280: a39e b1bd 1a3b d7bd 7eba 2a3f 8e7a 1dbe
00000290: bfa7 fb3d 364d 35be a74a 5fbd 5330 2a3d
000002a0: 142e 023e dcff 173e 8da0 803c bb14 c93d
000002b0: ff5d 85bc 60c1 933a e0fb 4e3d 0ec0 88bd
000002c0: 3270 973d 2c0f 893d b8ae 9a3c 74ce 263e
000002d0: ef85 33bd 0246 0fbd 4dc4 bd3d 28fa 1e3e
000002e0: c0b4 37be 1556 2fbe 3957 4ebe e9af 343e
000002f0: 984d 81bd f7d2 113d d743 023e 8297 dcbd
00000300: 3ef5 243e 9cdb 023e 3fe3 d53d 53e6 04bd
00000310: b442 be3d 3857 29bc 9026 6d3d c3d8 6b3d
00000320: 90a4 0abd e75f 42be b71a 39bd 156a 73bd
00000330: 13df 033e ef7c a5bd b74c bf3d 99b4 81bd
00000340: ed62 d7bd c881 733d 040a 36be 1a99 2c3e
00000350: ec91 edbd 0377 333d 9920 f2bd 5ee4 103e
00000360: ed27 d3bc 767f b43d ff58 25be 1dcb 75bd
00000370: 8c5e 553d 3842 943d 3d81 31be 61e1 823d
00000380: 49a0 13bc 3e85 b1bd bfc5 083e 781d edbd
00000390: d165 803a e344 f1bd c0e7 35be 5cac 283e
000003a0: e937 febd a49c 50bd a137 0ebe 18b2 d6bd
000003b0: 5fdb ea3c 44b7 80bd 55e2 a6bd d616 4cbd
000003c0: 4411 52bd 384a 333d b298 23be 05d6 2b3e
000003d0: 6d61 07be 1bd1 f83d 3c92 0e3e 48ea 1dbe
000003e0: 44c0 ab3d 4bbc 1dbe 5304 79bd f7d5 e83c
000003f0: e970 4bbd 68f6 c3bd ea93 673e 8dd2 183c
0.07274204 -0.15689483 -0.08977807 0.013781348 0.17009716 0.076871656 0.14108035 -0.090462595
-0.04193508 -0.13697502 0.16398984 0.07390169 0.06170343 -0.13478906 -0.107043654 0.055925712
-0.06908804 -0.00045824426 -0.1003952 -0.17692292 -0.017895544 -0.11275043 -0.09644908 -0.11581341
0.112062946 0.19855367 0.03957266 -0.15955207 -0.17639454 -0.078272685 -0.06613244 -0.008651942
0.23471478 0.012464466 0.012050103 0.10758763 -0.037062075 -0.108535424 0.024131913 -0.03234747
-0.0796891 0.13108292 -0.18211547 -0.025023391 0.035378993 0.15913606 -0.11624735 0.14506829
0.20069322 -0.1063156 -0.09216013 0.15691687 0.25013718 0.12731856 -0.08370823 -0.049901236
-0.058175102 0.17927122 0.16234504 0.1174778 0.15448809 -0.053237684 0.21000837 0.20099822
-0.08050615 -0.06008226 0.017946294 -0.06552732 -0.05123514 0.16379902 -0.14569657 0.027617965
0.16132765 0.16077684 -0.1200922 -0.1260038 0.06746812 0.16243416 -0.0777528 0.1341976
0.016312093 -0.113650136 0.060433574 0.0012761704 0.111126326 0.1641808 0.07671168 0.17157684
0.048530232 -0.014914322 0.014301796 -0.09508676 -0.10238371 -0.07481507 0.054156683 -0.0058029373
0.036203153 0.045305457 0.16915052 0.042894244 -0.13050345 0.032349 -0.011854805 0.017396756
-0.0003142422 0.19950895 -0.058236152 -0.03329449 0.07761155 0.06711357 0.14711301 0.09713466
0.15973824 0.042874023 0.08381297 0.033673797 0.16895686 -0.07278427 -0.005823495 -0.0438089
-0.021367807 0.10999753 -0.13175207 0.14101955 0.14791699 -0.03767156 0.06397997 0.214747
0.1731094 -0.15977971 -0.038623877 -0.176863 -0.015622076 -0.02386643 -0.067153625 -0.007807834
-0.111745805 -0.04337743 0.1641522 -0.10045022 0.11774097 0.15298146 0.022994833 -0.009606349
0.103899755 -0.054797698 -0.014967147 0.06933226 0.15089157 0.08413501 -0.17551094 0.11720067
0.13529798 0.05164519 -0.13481902 0.13390864 -0.039170805 0.08385091 -0.104864955 0.09804246
-0.08672836 -0.105093196 0.66690814 -0.15378782 0.122878544 -0.17705235 -0.054514553 0.04154999
0.1271289 0.14843696 0.015701557 0.09818407 -0.016280172 0.001127284 0.050533175 -0.066772565
0.073944464 0.06692347 0.01888214 0.16289693 -0.0438289 -0.034978874 0.09265957 0.15525115
-0.17940044 -0.17122681 -0.2015046 0.1764523 -0.06313628 0.035601582 0.12721191 -0.10771085
0.16109177 0.12779087 0.104437344 -0.032446217 0.09290066 -0.010335736 0.057898104 0.057579767
-0.033848345 -0.18981896 -0.045191493 -0.05942734 0.12878065 -0.0808047 0.09340804 -0.063332744
-0.105169155 0.05944994 -0.17777258 0.16855279 -0.11600098 0.04381467 -0.11822624 0.14149615
-0.025775874 0.08813374 -0.1614723 -0.060008157 0.05209212 0.07239193 -0.17334457 0.06390644
-0.009010383 -0.08667992 0.13356684 -0.11577886 0.0009795969 -0.11780717 -0.17764187 0.16472
-0.12413008 -0.050930634 -0.13888408 -0.104831874 0.028669057 -0.06284955 -0.08148638 -0.049826466
-0.051285997 0.043771952 -0.15976217 0.1678086 -0.13220759 0.12149259 0.13922971 -0.15421402
0.08386281 -0.1540386 -0.06079514 0.028422339 -0.049668226 -0.09568483 0.22615018 0.009327543

sequential/dense_2/MatMul f4 [32, 64]
00000000: 6a3c a13e 387c ac3d 1b7a 2e3e 5f1d fd3b
00000010: cbac 5ebe 10dd 05be cf6d 93bd 09d7 f5bd
00000020: 0c7b b63e 23a4 213c e389 b43d 1cbd 39bd
00000030: f570 843e 3870 233e cf75 1e3b ac4a 1abd
00000040: edb4 56be 94ba 323d af93 b73e 8fdd 883e
00000050: 686e 70be c672 703e 2f1b ea3b 5e8c d7bd
00000060: ad32 44be 6f39 7ebe 3b36 7a3d 69ca 053e
00000070: 35e2 983d ffc6 36be a9e0 98bc a7fc 5dbe
00000080: f211 bd3d a080 55be a413 33be 0a92 44be
00000090: 2fd0 453d 8bff 81be ff5f 533e 2ca3 753e
000000a0: af38 fb3d 0e46 e93d f944 823e b7d5 b93d
000000b0: d018 7a3e 464c 13be 54c1 393e fbf3 7bbd
000000c0: 82ab 5a3e 2534 4b3e ffad 693e 74fe 253e
000000d0: db7d 0ebe 4b0c 3fbc 954f 8bbe 3965 03be
000000e0: 99e4 d33d 03d3 a5bd 03ec d6bd cd36 ddbd
000000f0: 9d45 bbbd c1ad c43d 23a0 29be 4052 963c
00000100: 725e b43d 4511 44be 9c83 273e 6dbc 293e
00000110: 8472 153e 5e5d 6a3e 2ac2 e73d 8299 6bbe
00000120: 8dc0 813d 6020 be3d 5cab da3d de85 a33c
00000130: f3d7 1a3e 59ca c63d 8a36 0cbe 67e9 37be
00000140: 8f1f a3bd 384e 003e 1267 bebd a214 8fbe
00000150: 6059 bd3d 50ec 4ebd e05b 1c3e 48f8 283e
00000160: 2986 1d3e 1796 093e 59c4 fcbd 0093 03bb
00000170: 843a 9ebc 5625 643e fe94 28be 6f8b 823e
00000180: 33ed 2cbd 9caa 7cbe fd37 0c3c 8b6e 78be
00000190: 32bb 2abd 66c3 403e a884 4bbe 2f27 203d
000001a0: adc4 c83d df05 29bb 94a8 85be e6e2 2cbe
000001b0: 105e 25bd 7122 373e 28a5 633e 7212 bbbd
000001c0: 9c72 e8bd a680 b8bc 5ff6 3c3d 8150 ba3e
000001d0: c5c1 2abd 3dd2 173e 6856 e1bd e7d5 253e
000001e0: b67f 213e 10c8 7dbd 8430 7cbe db7d 823e
000001f0: 89ec 66be e6fb 27be d657 813b 9198 583e
00000200: e8ae 323e d47d ef3d dd0d 09be ea52 003c
00000210: 3894 193e 86e1 713e c069 eabd c302 023e
00000220: df24 32be 3cd6 333e fcbe 103e bc7e 80be
00000230: b9ec 143d d42e 6e3c 560b 703e a130 d53c
00000240: 9acf 4b3e 0266 2f3d 87c3 f5bd 3f61 3e3e
00000250: 20a1 fcbd 9f42 7dbe 79cf 813d 3b0c 003e
00000260: 0703 5dbd 4738 d93d 6710 133e 6200 6b3d
00000270: c04d ca3d 7329 78be e22f 2dbe f50f 36be
00000280: a6eb afbd 41ad 0bbe f4e8 653e d432 433e
00000290: d74d 563e 8269 59be 81c0 ea3d b3bc d0bd
000002a0: 13f0 d8bc 98bd af3d da51 40be e1ba 743e
000002b0: 220e 1d3e d088 14be 5c31 49be 9e8c 223e
000002c0: 0360 223e 1643 2cbe f3ed 3a3e aa93 303e
000002d0: d68b 5c3e c109 6ebe 07d4 26be daae d83d
000002e0: d218 8d3d 3be2 b73b 7353 36be 1474 c73d
000002f0: fe5f 6c3e 7366 58be 5935 5a3e e7f9 d4bd
00000300: 3647 8c3e d95d 52be f045 513e d43a 553d
00000310: cd54 2e3e 8046 0f3e d932 5d3e 23ef 87bd
00000320: c919 413c 45e3 31be 2d27 113e 234d d73e
00000330: 5d42 67bd 79f7 163e c482 533e 0a2b 6a3a
00000340: 4399 9b3d 5d50 43bd 065d 833e e298 763e
00000350: 4059 023d 7812 c4bd 1556 07be c5d4 56be
00000360: d9a7 773e f7dc 373d 040a 0f3e 76a5 c0bd
00000370: 869f 6c3d 480a a1bd 016a 92bd f0d5 c1bd
00000380: a4d9 2cbe 66ec c4bc a905 1ebd 45f5 20be
00000390: 35f6 0ebd e058 e6bd 14fc 643e 1bb9 943d
000003a0: 561d 6b3d 8910 a43d a939 123e d1ba 85bd
000003b0: 611c b43d e44a 413e ed82 87bd f89b 75bd
000003c0: 8621 43bd b1f6 e03d b899 6a3e 2846 dbbd
000003d0: 9f9d 263e a69d debd a191 ab3d b070 6ebd
000003e0: 520f 643e a122 7c3e a463 04bd 1e0e 603d
000003f0: 2ddb 01be eb0d 6bbe 3676 4dbd 08ad 38be
0.31491405 0.0842213 0.17038767 0.0077244486 -0.21745603 -0.1307261 -0.07198679 -0.12003905
0.35640752 0.009865793 0.08815362 -0.045346364 0.2586743 0.15960777 0.0024179106 -0.03766887
-0.20967455 0.043634966 0.3585486 0.26731536 -0.23479617 0.23481283 0.007144354 -0.1052482
-0.19159956 -0.24826597 0.061086874 0.13065495 0.074650206 -0.17849348 -0.018661814 -0.2167841
0.092319384 -0.20849848 -0.17487961 -0.19196334 0.048294242 -0.25390276 0.20642088 0.23988026
0.12266671 0.11390315 0.25443247 0.09073966 0.24423528 -0.14384565 0.18140155 -0.061511975
0.21354488 0.1984411 0.2282028 0.16210347 -0.13915198 -0.011660646 -0.27209154 -0.12831582
0.10346336 -0.08096888 -0.104942344 -0.10801468 -0.09144137 0.096034534 -0.16564994 0.018349767
0.088070765 -0.19147213 0.16358799 0.16575785 0.14594465 0.2288718 0.11316331 -0.23007777
0.06335554 0.09283519 0.106772155 0.019961294 0.1512144 0.097065635 -0.1369268 -0.1796013
-0.07965004 0.12529838 -0.09297003 -0.2794543 0.092455626 -0.050518334 0.15269423 0.16500962
0.1538321 0.13436161 -0.12342138 -0.0020076632 -0.019315012 0.22279868 -0.16463086 0.25497004
-0.0422184 -0.24674457 0.0085582705 -0.24260919 -0.04168243 0.18824539 -0.19874823 0.03909987
0.09803138 -0.0025790853 -0.26105177 -0.1688343 -0.040372908 0.17884232 0.22230971 -0.091343775
-0.11349985 -0.022522282 0.046133395 0.36389545 -0.0416887 0.14826293 -0.11002809 0.16194879
0.15771374 -0.061958373 -0.24627882 0.25486645 -0.22551169 -0.16404685 0.0039472384 0.2115195
0.17449534 0.11693922 -0.13384195 0.007832268 0.14997947 0.23621187 -0.114459515 0.12696366
-0.17396878 0.17562193 0.14135355 -0.2509669 0.03635857 0.014537532 0.23441824 0.026024165
0.19903412 0.04282189 -0.120001845 0.18591784 -0.1233542 -0.24732445 0.063384004 0.12504666
-0.053957965 0.10606437 0.14361726 0.057373412 0.09878111 -0.24234562 -0.16912797 -0.17779525
-0.08589868 -0.1364031 0.22452146 0.19062358 0.20928131 -0.21231654 0.114624985 -0.101922415
-0.026481664 0.08581084 -0.18781224 0.23899414 0.15337422 -0.14505315 -0.19647735 0.15873954
0.15856938 -0.16822466 0.18254833 0.1724383 0.21537718 -0.23245908 -0.1629182 0.10580225
0.068895 0.0056116856 -0.17805271 0.09738937 0.23083493 -0.21132831 0.21309413 -0.103992276
0.2739808 -0.20543613 0.20436835 0.052058056 0.17024536 0.13991737 0.21601428 -0.066374086
0.011785933 -0.17371853 0.141751 0.42051038 -0.056459773 0.14742841 0.20655352 0.0008932805
0.07597592 -0.047684062 0.2565691 0.24081758 0.031823397 -0.09573835 -0.13216431 -0.20979603
0.24185123 0.044888463 0.13968664 -0.09406559 0.05776932 -0.07863289 -0.07149125 -0.094646335
-0.16879898 -0.024038505 -0.038579617 -0.15718563 -0.03490277 -0.1124742 0.22361785 0.072618686
0.057401024 0.08010966 0.14279808 -0.06529773 0.08794475 0.18876225 -0.06616769 -0.059963197
-0.047639392 0.10984553 0.22910202 -0.107067406 0.16271065 -0.10869913 0.08377386 -0.058212936
0.22271469 0.24622585 -0.032321587 0.054700963 -0.12681265 -0.22954528 -0.050161563 -0.18034756

sequential/dense_3/MatMul f4 [5, 32]
00000000: ba20 e1be 50ae 77be 00f7 183e 58f1 9b3c
00000010: e6af 833e 7f69 efbe 837a b93e 604b bfbe
00000020: 9081 4abe 0af0 8fbd 175f f1be 4c22 653d
00000030: 18d4 cc3e bf63 823e 2471 6f3e 151b 53be
00000040: b620 8fbe 772e 02be 2966 513e 2302 a83d
00000050: a93c 3ebe 71c0 7c3e c5c5 08be a542 e03e
00000060: 1776 8e3e 8285 5dbe 9c6e 22be 069c 973c
00000070: 9a2f 71be 6566 9a3e 2f5c 323e b7f2 0abe
00000080: 7802 10bf b3d5 a1bb 796f 393d 9c80 ebbc
00000090: 905c 7d3d 8ad6 e3be d978 183e 81db a73e
000000a0: d3bb aa3e 479d 603e 5c26 863e f47c 58be
000000b0: a0a0 a6bd a212 7b3e 9453 cd3d cd40 9cbd
000000c0: fe66 5a3e 1d95 143e e227 95be 2849 58be
000000d0: 231a 9e3e c51c cd3c 3aa9 7a3d 7c1c 773e
000000e0: 06d5 883e ce2e ecbe b74e 723e b267 95be
000000f0: 9abb 48bd c6e8 7b3e f06c 72be 3a95 b9be
00000100: 8a6e 973e 93b6 cdbe a4d6 073b f186 013e
00000110: 83ab 7fbe a444 4f3e 69d9 18be f071 743e
00000120: 8d79 983e a002 473e 44c1 043f 88bd c3be
00000130: 1ff7 c2be ea08 70bb 691e cb3e 9350 433d
00000140: 4054 17be 611e b8be 5614 c33e 97f1 093e
00000150: e281 c43e 749b d93e 8a53 913e d424 4ebe
00000160: 8bc6 48be ecb2 6e3e 68da e23d 7552 a13e
00000170: 1f53 49be 0bda e2bd 6c7f 443e 5116 9abd
00000180: 4d72 513e dc30 6cbe d220 f4bd 6ce0 e1bd
00000190: ec6e c4be e89a 9bbe 9e92 a73e 93e9 923c
000001a0: 5f65 67be 7dfb a53e 2153 bfbe 04be c5be
000001b0: 24d1 113e be69 9bbe 7c60 4dbe d37e dbbd
000001c0: a95f fa3d e5ce 57be 43d9 c2bc c39b 8dbe
000001d0: 09a5 6dbd 1be2 e0be dc5d 443e b6b7 c2be
000001e0: 0db4 25be 7f22 a7be f40c be3e db07 4b3e
000001f0: 499d ad3e e4f0 6abd 125a ccbd 984a 59bd
00000200: a30b 33be 2c76 b0bd 41f4 97bd 0370 2c3c
00000210: 328f 9f3e ef0b f2be cac2 ae3e 380a debd
00000220: 5011 04bf 8434 c0be c604 99be a3c1 403d
00000230: 5732 48be 37c1 bc3e 35f2 01be b9d9 be3d
00000240: c48e 9a3e 3c34 b5be be0d c8bd 7f39 1cbe
00000250: 0c06 ebbd 10c1 a4be 54ec a43e 5ecf 0d3e
00000260: a472 1bbe 2a6a eabe 87e5 583e 8ab3 863e
00000270: 1ec2 acbe 6146 eabd 436e 88be 3df3 a3bd
-0.4397028 -0.24187589 0.14937973 0.01903598 0.25720137 -0.46760175 0.36226282 -0.37362194
-0.19775987 -0.07028206 -0.4714286 0.05594091 0.40005565 0.25466725 0.23383003 -0.206158
-0.27954644 -0.12713037 0.20449127 0.082035325 -0.18577828 0.24682786 -0.13356693 0.43800846
0.2782447 -0.2163296 -0.15862507 0.018507015 -0.23553315 0.30156246 0.17417978 -0.13569151
-0.56253767 -0.004938805 0.045272324 -0.02874785 0.061855853 -0.44499618 0.1488985 0.32784656
0.33346424 0.21934997 0.2620114 -0.21141416 -0.081361055 0.24518827 0.10025707 -0.07629547
0.21328351 0.14510007 -0.2913199 -0.21121657 0.30879316 0.025038132 0.061196543 0.2413196
0.26725024 -0.4612946 0.2366284 -0.29180676 -0.049007036 0.24600515 -0.23674369 -0.36246663
0.29576522 -0.40178356 0.00207273 0.12649132 -0.2496777 0.20241028 -0.14926685 0.23871589
0.29780236 0.19434595 0.518574 -0.38230538 -0.38079163 -0.0036626407 0.3967164 0.047684263
-0.14778233 -0.35960677 0.38101453 0.13471065 0.38380343 0.42501414 0.28384048 -0.20131236
-0.19606988 0.23310441 0.11076814 0.31508222 -0.19660614 -0.11076745 0.19189233 -0.07523788
0.20453759 -0.23065513 -0.119203225 -0.11029133 -0.38365877 -0.30391622 0.32729048 0.017933642
-0.22597264 0.32418433 -0.3736811 -0.38621533 0.14239937 -0.30354112 -0.20056337 -0.10717549
0.12225277 -0.21075018 -0.02378524 -0.276579 -0.058018718 -0.43922505 0.1917643 -0.38030785
-0.16181965 -0.32643506 0.37119257 0.19827215 0.33909062 -0.057358637 -0.09978117 -0.053049654
-0.17484908 -0.086162895 -0.074196346 0.010524753 0.31163937 -0.4727473 0.34132987 -0.10841793
-0.51588917 -0.37540066 -0.29886454 0.047059666 -0.19550453 0.3686616 -0.12690051 0.09318871
0.30187047 -0.35391414 -0.09768246 -0.15256308 -0.11475763 -0.32178545 0.32211554 0.13848636
-0.1518045 -0.45784122 0.21181308 0.26308852 -0.3374185 -0.11439205 -0.26646623 -0.080053784
